node {
  name: "Input_Video"
  op: "Placeholder"
  attr {
    key: "dtype"
    value {
      type: DT_FLOAT
    }
  }
  attr {
    key: "shape"
    value {
      shape {
        dim {
          size: 1
        }
        dim {
          size: 80
        }
        dim {
          size: 4096
        }
      }
    }
  }
}
node {
  name: "GT_Caption"
  op: "Placeholder"
  attr {
    key: "dtype"
    value {
      type: DT_INT32
    }
  }
  attr {
    key: "shape"
    value {
      shape {
        dim {
          size: 1
        }
        dim {
          size: 80
        }
      }
    }
  }
}
node {
  name: "Caption_Mask"
  op: "Placeholder"
  attr {
    key: "dtype"
    value {
      type: DT_FLOAT
    }
  }
  attr {
    key: "shape"
    value {
      shape {
        dim {
          size: 1
        }
        dim {
          size: 80
        }
      }
    }
  }
}
node {
  name: "Dropout_Keep_Probability"
  op: "Placeholder"
  attr {
    key: "dtype"
    value {
      type: DT_FLOAT
    }
  }
  attr {
    key: "shape"
    value {
      shape {
        unknown_rank: true
      }
    }
  }
}
node {
  name: "Im2Cap/W_im2cap/Initializer/random_uniform/shape"
  op: "Const"
  attr {
    key: "_class"
    value {
      list {
        s: "loc:@Im2Cap/W_im2cap"
      }
    }
  }
  attr {
    key: "dtype"
    value {
      type: DT_INT32
    }
  }
  attr {
    key: "value"
    value {
      tensor {
        dtype: DT_INT32
        tensor_shape {
          dim {
            size: 2
          }
        }
        tensor_content: "\000\020\000\000\364\001\000\000"
      }
    }
  }
}
node {
  name: "Im2Cap/W_im2cap/Initializer/random_uniform/min"
  op: "Const"
  attr {
    key: "_class"
    value {
      list {
        s: "loc:@Im2Cap/W_im2cap"
      }
    }
  }
  attr {
    key: "dtype"
    value {
      type: DT_FLOAT
    }
  }
  attr {
    key: "value"
    value {
      tensor {
        dtype: DT_FLOAT
        tensor_shape {
        }
        float_val: -0.07999999821186066
      }
    }
  }
}
node {
  name: "Im2Cap/W_im2cap/Initializer/random_uniform/max"
  op: "Const"
  attr {
    key: "_class"
    value {
      list {
        s: "loc:@Im2Cap/W_im2cap"
      }
    }
  }
  attr {
    key: "dtype"
    value {
      type: DT_FLOAT
    }
  }
  attr {
    key: "value"
    value {
      tensor {
        dtype: DT_FLOAT
        tensor_shape {
        }
        float_val: 0.07999999821186066
      }
    }
  }
}
node {
  name: "Im2Cap/W_im2cap/Initializer/random_uniform/RandomUniform"
  op: "RandomUniform"
  input: "Im2Cap/W_im2cap/Initializer/random_uniform/shape"
  attr {
    key: "T"
    value {
      type: DT_INT32
    }
  }
  attr {
    key: "_class"
    value {
      list {
        s: "loc:@Im2Cap/W_im2cap"
      }
    }
  }
  attr {
    key: "dtype"
    value {
      type: DT_FLOAT
    }
  }
  attr {
    key: "seed"
    value {
      i: 0
    }
  }
  attr {
    key: "seed2"
    value {
      i: 0
    }
  }
}
node {
  name: "Im2Cap/W_im2cap/Initializer/random_uniform/sub"
  op: "Sub"
  input: "Im2Cap/W_im2cap/Initializer/random_uniform/max"
  input: "Im2Cap/W_im2cap/Initializer/random_uniform/min"
  attr {
    key: "T"
    value {
      type: DT_FLOAT
    }
  }
  attr {
    key: "_class"
    value {
      list {
        s: "loc:@Im2Cap/W_im2cap"
      }
    }
  }
}
node {
  name: "Im2Cap/W_im2cap/Initializer/random_uniform/mul"
  op: "Mul"
  input: "Im2Cap/W_im2cap/Initializer/random_uniform/RandomUniform"
  input: "Im2Cap/W_im2cap/Initializer/random_uniform/sub"
  attr {
    key: "T"
    value {
      type: DT_FLOAT
    }
  }
  attr {
    key: "_class"
    value {
      list {
        s: "loc:@Im2Cap/W_im2cap"
      }
    }
  }
}
node {
  name: "Im2Cap/W_im2cap/Initializer/random_uniform"
  op: "AddV2"
  input: "Im2Cap/W_im2cap/Initializer/random_uniform/mul"
  input: "Im2Cap/W_im2cap/Initializer/random_uniform/min"
  attr {
    key: "T"
    value {
      type: DT_FLOAT
    }
  }
  attr {
    key: "_class"
    value {
      list {
        s: "loc:@Im2Cap/W_im2cap"
      }
    }
  }
}
node {
  name: "Im2Cap/W_im2cap"
  op: "VarHandleOp"
  attr {
    key: "_class"
    value {
      list {
        s: "loc:@Im2Cap/W_im2cap"
      }
    }
  }
  attr {
    key: "allowed_devices"
    value {
      list {
      }
    }
  }
  attr {
    key: "container"
    value {
      s: ""
    }
  }
  attr {
    key: "dtype"
    value {
      type: DT_FLOAT
    }
  }
  attr {
    key: "shape"
    value {
      shape {
        dim {
          size: 4096
        }
        dim {
          size: 500
        }
      }
    }
  }
  attr {
    key: "shared_name"
    value {
      s: "Im2Cap/W_im2cap"
    }
  }
}
node {
  name: "Im2Cap/W_im2cap/IsInitialized/VarIsInitializedOp"
  op: "VarIsInitializedOp"
  input: "Im2Cap/W_im2cap"
}
node {
  name: "Im2Cap/W_im2cap/Assign"
  op: "AssignVariableOp"
  input: "Im2Cap/W_im2cap"
  input: "Im2Cap/W_im2cap/Initializer/random_uniform"
  attr {
    key: "dtype"
    value {
      type: DT_FLOAT
    }
  }
  attr {
    key: "validate_shape"
    value {
      b: false
    }
  }
}
node {
  name: "Im2Cap/W_im2cap/Read/ReadVariableOp"
  op: "ReadVariableOp"
  input: "Im2Cap/W_im2cap"
  attr {
    key: "dtype"
    value {
      type: DT_FLOAT
    }
  }
}
node {
  name: "Im2Cap/b_im2cap/Initializer/Const"
  op: "Const"
  attr {
    key: "_class"
    value {
      list {
        s: "loc:@Im2Cap/b_im2cap"
      }
    }
  }
  attr {
    key: "dtype"
    value {
      type: DT_FLOAT
    }
  }
  attr {
    key: "value"
    value {
      tensor {
        dtype: DT_FLOAT
        tensor_shape {
          dim {
            size: 500
          }
        }
        float_val: 0.0
      }
    }
  }
}
node {
  name: "Im2Cap/b_im2cap"
  op: "VarHandleOp"
  attr {
    key: "_class"
    value {
      list {
        s: "loc:@Im2Cap/b_im2cap"
      }
    }
  }
  attr {
    key: "allowed_devices"
    value {
      list {
      }
    }
  }
  attr {
    key: "container"
    value {
      s: ""
    }
  }
  attr {
    key: "dtype"
    value {
      type: DT_FLOAT
    }
  }
  attr {
    key: "shape"
    value {
      shape {
        dim {
          size: 500
        }
      }
    }
  }
  attr {
    key: "shared_name"
    value {
      s: "Im2Cap/b_im2cap"
    }
  }
}
node {
  name: "Im2Cap/b_im2cap/IsInitialized/VarIsInitializedOp"
  op: "VarIsInitializedOp"
  input: "Im2Cap/b_im2cap"
}
node {
  name: "Im2Cap/b_im2cap/Assign"
  op: "AssignVariableOp"
  input: "Im2Cap/b_im2cap"
  input: "Im2Cap/b_im2cap/Initializer/Const"
  attr {
    key: "dtype"
    value {
      type: DT_FLOAT
    }
  }
  attr {
    key: "validate_shape"
    value {
      b: false
    }
  }
}
node {
  name: "Im2Cap/b_im2cap/Read/ReadVariableOp"
  op: "ReadVariableOp"
  input: "Im2Cap/b_im2cap"
  attr {
    key: "dtype"
    value {
      type: DT_FLOAT
    }
  }
}
node {
  name: "Hid2Vocab/W_H2vocab/Initializer/random_uniform/shape"
  op: "Const"
  attr {
    key: "_class"
    value {
      list {
        s: "loc:@Hid2Vocab/W_H2vocab"
      }
    }
  }
  attr {
    key: "dtype"
    value {
      type: DT_INT32
    }
  }
  attr {
    key: "value"
    value {
      tensor {
        dtype: DT_INT32
        tensor_shape {
          dim {
            size: 2
          }
        }
        tensor_content: "\364\001\000\00021\000\000"
      }
    }
  }
}
node {
  name: "Hid2Vocab/W_H2vocab/Initializer/random_uniform/min"
  op: "Const"
  attr {
    key: "_class"
    value {
      list {
        s: "loc:@Hid2Vocab/W_H2vocab"
      }
    }
  }
  attr {
    key: "dtype"
    value {
      type: DT_FLOAT
    }
  }
  attr {
    key: "value"
    value {
      tensor {
        dtype: DT_FLOAT
        tensor_shape {
        }
        float_val: -0.07999999821186066
      }
    }
  }
}
node {
  name: "Hid2Vocab/W_H2vocab/Initializer/random_uniform/max"
  op: "Const"
  attr {
    key: "_class"
    value {
      list {
        s: "loc:@Hid2Vocab/W_H2vocab"
      }
    }
  }
  attr {
    key: "dtype"
    value {
      type: DT_FLOAT
    }
  }
  attr {
    key: "value"
    value {
      tensor {
        dtype: DT_FLOAT
        tensor_shape {
        }
        float_val: 0.07999999821186066
      }
    }
  }
}
node {
  name: "Hid2Vocab/W_H2vocab/Initializer/random_uniform/RandomUniform"
  op: "RandomUniform"
  input: "Hid2Vocab/W_H2vocab/Initializer/random_uniform/shape"
  attr {
    key: "T"
    value {
      type: DT_INT32
    }
  }
  attr {
    key: "_class"
    value {
      list {
        s: "loc:@Hid2Vocab/W_H2vocab"
      }
    }
  }
  attr {
    key: "dtype"
    value {
      type: DT_FLOAT
    }
  }
  attr {
    key: "seed"
    value {
      i: 0
    }
  }
  attr {
    key: "seed2"
    value {
      i: 0
    }
  }
}
node {
  name: "Hid2Vocab/W_H2vocab/Initializer/random_uniform/sub"
  op: "Sub"
  input: "Hid2Vocab/W_H2vocab/Initializer/random_uniform/max"
  input: "Hid2Vocab/W_H2vocab/Initializer/random_uniform/min"
  attr {
    key: "T"
    value {
      type: DT_FLOAT
    }
  }
  attr {
    key: "_class"
    value {
      list {
        s: "loc:@Hid2Vocab/W_H2vocab"
      }
    }
  }
}
node {
  name: "Hid2Vocab/W_H2vocab/Initializer/random_uniform/mul"
  op: "Mul"
  input: "Hid2Vocab/W_H2vocab/Initializer/random_uniform/RandomUniform"
  input: "Hid2Vocab/W_H2vocab/Initializer/random_uniform/sub"
  attr {
    key: "T"
    value {
      type: DT_FLOAT
    }
  }
  attr {
    key: "_class"
    value {
      list {
        s: "loc:@Hid2Vocab/W_H2vocab"
      }
    }
  }
}
node {
  name: "Hid2Vocab/W_H2vocab/Initializer/random_uniform"
  op: "AddV2"
  input: "Hid2Vocab/W_H2vocab/Initializer/random_uniform/mul"
  input: "Hid2Vocab/W_H2vocab/Initializer/random_uniform/min"
  attr {
    key: "T"
    value {
      type: DT_FLOAT
    }
  }
  attr {
    key: "_class"
    value {
      list {
        s: "loc:@Hid2Vocab/W_H2vocab"
      }
    }
  }
}
node {
  name: "Hid2Vocab/W_H2vocab"
  op: "VarHandleOp"
  attr {
    key: "_class"
    value {
      list {
        s: "loc:@Hid2Vocab/W_H2vocab"
      }
    }
  }
  attr {
    key: "allowed_devices"
    value {
      list {
      }
    }
  }
  attr {
    key: "container"
    value {
      s: ""
    }
  }
  attr {
    key: "dtype"
    value {
      type: DT_FLOAT
    }
  }
  attr {
    key: "shape"
    value {
      shape {
        dim {
          size: 500
        }
        dim {
          size: 12594
        }
      }
    }
  }
  attr {
    key: "shared_name"
    value {
      s: "Hid2Vocab/W_H2vocab"
    }
  }
}
node {
  name: "Hid2Vocab/W_H2vocab/IsInitialized/VarIsInitializedOp"
  op: "VarIsInitializedOp"
  input: "Hid2Vocab/W_H2vocab"
}
node {
  name: "Hid2Vocab/W_H2vocab/Assign"
  op: "AssignVariableOp"
  input: "Hid2Vocab/W_H2vocab"
  input: "Hid2Vocab/W_H2vocab/Initializer/random_uniform"
  attr {
    key: "dtype"
    value {
      type: DT_FLOAT
    }
  }
  attr {
    key: "validate_shape"
    value {
      b: false
    }
  }
}
node {
  name: "Hid2Vocab/W_H2vocab/Read/ReadVariableOp"
  op: "ReadVariableOp"
  input: "Hid2Vocab/W_H2vocab"
  attr {
    key: "dtype"
    value {
      type: DT_FLOAT
    }
  }
}
node {
  name: "Hid2Vocab/b_H2vocab/Initializer/initial_value"
  op: "Const"
  attr {
    key: "_class"
    value {
      list {
        s: "loc:@Hid2Vocab/b_H2vocab"
      }
    }
  }
  attr {
    key: "dtype"
    value {
      type: DT_FLOAT
    }
  }
  attr {
    key: "value"
    value {
      tensor {
        dtype: DT_FLOAT
        tensor_shape {
          dim {
            size: 12594
          }
        }
        tensor_content: "…"
      }
    }
  }
}
node {
  name: "Hid2Vocab/b_H2vocab"
  op: "VarHandleOp"
  attr {
    key: "_class"
    value {
      list {
        s: "loc:@Hid2Vocab/b_H2vocab"
      }
    }
  }
  attr {
    key: "allowed_devices"
    value {
      list {
      }
    }
  }
  attr {
    key: "container"
    value {
      s: ""
    }
  }
  attr {
    key: "dtype"
    value {
      type: DT_FLOAT
    }
  }
  attr {
    key: "shape"
    value {
      shape {
        dim {
          size: 12594
        }
      }
    }
  }
  attr {
    key: "shared_name"
    value {
      s: "Hid2Vocab/b_H2vocab"
    }
  }
}
node {
  name: "Hid2Vocab/b_H2vocab/IsInitialized/VarIsInitializedOp"
  op: "VarIsInitializedOp"
  input: "Hid2Vocab/b_H2vocab"
}
node {
  name: "Hid2Vocab/b_H2vocab/Assign"
  op: "AssignVariableOp"
  input: "Hid2Vocab/b_H2vocab"
  input: "Hid2Vocab/b_H2vocab/Initializer/initial_value"
  attr {
    key: "dtype"
    value {
      type: DT_FLOAT
    }
  }
  attr {
    key: "validate_shape"
    value {
      b: false
    }
  }
}
node {
  name: "Hid2Vocab/b_H2vocab/Read/ReadVariableOp"
  op: "ReadVariableOp"
  input: "Hid2Vocab/b_H2vocab"
  attr {
    key: "dtype"
    value {
      type: DT_FLOAT
    }
  }
}
node {
  name: "Word_Vectors/Word_embedding/Initializer/random_uniform/shape"
  op: "Const"
  attr {
    key: "_class"
    value {
      list {
        s: "loc:@Word_Vectors/Word_embedding"
      }
    }
  }
  attr {
    key: "dtype"
    value {
      type: DT_INT32
    }
  }
  attr {
    key: "value"
    value {
      tensor {
        dtype: DT_INT32
        tensor_shape {
          dim {
            size: 2
          }
        }
        tensor_content: "21\000\000\364\001\000\000"
      }
    }
  }
}
node {
  name: "Word_Vectors/Word_embedding/Initializer/random_uniform/min"
  op: "Const"
  attr {
    key: "_class"
    value {
      list {
        s: "loc:@Word_Vectors/Word_embedding"
      }
    }
  }
  attr {
    key: "dtype"
    value {
      type: DT_FLOAT
    }
  }
  attr {
    key: "value"
    value {
      tensor {
        dtype: DT_FLOAT
        tensor_shape {
        }
        float_val: -0.07999999821186066
      }
    }
  }
}
node {
  name: "Word_Vectors/Word_embedding/Initializer/random_uniform/max"
  op: "Const"
  attr {
    key: "_class"
    value {
      list {
        s: "loc:@Word_Vectors/Word_embedding"
      }
    }
  }
  attr {
    key: "dtype"
    value {
      type: DT_FLOAT
    }
  }
  attr {
    key: "value"
    value {
      tensor {
        dtype: DT_FLOAT
        tensor_shape {
        }
        float_val: 0.07999999821186066
      }
    }
  }
}
node {
  name: "Word_Vectors/Word_embedding/Initializer/random_uniform/RandomUniform"
  op: "RandomUniform"
  input: "Word_Vectors/Word_embedding/Initializer/random_uniform/shape"
  attr {
    key: "T"
    value {
      type: DT_INT32
    }
  }
  attr {
    key: "_class"
    value {
      list {
        s: "loc:@Word_Vectors/Word_embedding"
      }
    }
  }
  attr {
    key: "dtype"
    value {
      type: DT_FLOAT
    }
  }
  attr {
    key: "seed"
    value {
      i: 0
    }
  }
  attr {
    key: "seed2"
    value {
      i: 0
    }
  }
}
node {
  name: "Word_Vectors/Word_embedding/Initializer/random_uniform/sub"
  op: "Sub"
  input: "Word_Vectors/Word_embedding/Initializer/random_uniform/max"
  input: "Word_Vectors/Word_embedding/Initializer/random_uniform/min"
  attr {
    key: "T"
    value {
      type: DT_FLOAT
    }
  }
  attr {
    key: "_class"
    value {
      list {
        s: "loc:@Word_Vectors/Word_embedding"
      }
    }
  }
}
node {
  name: "Word_Vectors/Word_embedding/Initializer/random_uniform/mul"
  op: "Mul"
  input: "Word_Vectors/Word_embedding/Initializer/random_uniform/RandomUniform"
  input: "Word_Vectors/Word_embedding/Initializer/random_uniform/sub"
  attr {
    key: "T"
    value {
      type: DT_FLOAT
    }
  }
  attr {
    key: "_class"
    value {
      list {
        s: "loc:@Word_Vectors/Word_embedding"
      }
    }
  }
}
node {
  name: "Word_Vectors/Word_embedding/Initializer/random_uniform"
  op: "AddV2"
  input: "Word_Vectors/Word_embedding/Initializer/random_uniform/mul"
  input: "Word_Vectors/Word_embedding/Initializer/random_uniform/min"
  attr {
    key: "T"
    value {
      type: DT_FLOAT
    }
  }
  attr {
    key: "_class"
    value {
      list {
        s: "loc:@Word_Vectors/Word_embedding"
      }
    }
  }
}
node {
  name: "Word_Vectors/Word_embedding"
  op: "VarHandleOp"
  attr {
    key: "_class"
    value {
      list {
        s: "loc:@Word_Vectors/Word_embedding"
      }
    }
  }
  attr {
    key: "allowed_devices"
    value {
      list {
      }
    }
  }
  attr {
    key: "container"
    value {
      s: ""
    }
  }
  attr {
    key: "dtype"
    value {
      type: DT_FLOAT
    }
  }
  attr {
    key: "shape"
    value {
      shape {
        dim {
          size: 12594
        }
        dim {
          size: 500
        }
      }
    }
  }
  attr {
    key: "shared_name"
    value {
      s: "Word_Vectors/Word_embedding"
    }
  }
}
node {
  name: "Word_Vectors/Word_embedding/IsInitialized/VarIsInitializedOp"
  op: "VarIsInitializedOp"
  input: "Word_Vectors/Word_embedding"
}
node {
  name: "Word_Vectors/Word_embedding/Assign"
  op: "AssignVariableOp"
  input: "Word_Vectors/Word_embedding"
  input: "Word_Vectors/Word_embedding/Initializer/random_uniform"
  attr {
    key: "dtype"
    value {
      type: DT_FLOAT
    }
  }
  attr {
    key: "validate_shape"
    value {
      b: false
    }
  }
}
node {
  name: "Word_Vectors/Word_embedding/Read/ReadVariableOp"
  op: "ReadVariableOp"
  input: "Word_Vectors/Word_embedding"
  attr {
    key: "dtype"
    value {
      type: DT_FLOAT
    }
  }
}
node {
  name: "LSTM_Video/DropoutWrapperInit/Const"
  op: "Const"
  attr {
    key: "dtype"
    value {
      type: DT_FLOAT
    }
  }
  attr {
    key: "value"
    value {
      tensor {
        dtype: DT_FLOAT
        tensor_shape {
        }
        float_val: 1.0
      }
    }
  }
}
node {
  name: "LSTM_Video/DropoutWrapperInit/Const_1"
  op: "Const"
  attr {
    key: "dtype"
    value {
      type: DT_FLOAT
    }
  }
  attr {
    key: "value"
    value {
      tensor {
        dtype: DT_FLOAT
        tensor_shape {
        }
        float_val: 1.0
      }
    }
  }
}
node {
  name: "LSTM_Caption/DropoutWrapperInit/Const"
  op: "Const"
  attr {
    key: "dtype"
    value {
      type: DT_FLOAT
    }
  }
  attr {
    key: "value"
    value {
      tensor {
        dtype: DT_FLOAT
        tensor_shape {
        }
        float_val: 1.0
      }
    }
  }
}
node {
  name: "LSTM_Caption/DropoutWrapperInit/Const_1"
  op: "Const"
  attr {
    key: "dtype"
    value {
      type: DT_FLOAT
    }
  }
  attr {
    key: "value"
    value {
      tensor {
        dtype: DT_FLOAT
        tensor_shape {
        }
        float_val: 1.0
      }
    }
  }
}
node {
  name: "Reshape/shape"
  op: "Const"
  attr {
    key: "dtype"
    value {
      type: DT_INT32
    }
  }
  attr {
    key: "value"
    value {
      tensor {
        dtype: DT_INT32
        tensor_shape {
          dim {
            size: 2
          }
        }
        tensor_content: "\377\377\377\377\000\020\000\000"
      }
    }
  }
}
node {
  name: "Reshape"
  op: "Reshape"
  input: "Input_Video"
  input: "Reshape/shape"
  attr {
    key: "T"
    value {
      type: DT_FLOAT
    }
  }
  attr {
    key: "Tshape"
    value {
      type: DT_INT32
    }
  }
}
node {
  name: "sub/x"
  op: "Const"
  attr {
    key: "dtype"
    value {
      type: DT_FLOAT
    }
  }
  attr {
    key: "value"
    value {
      tensor {
        dtype: DT_FLOAT
        tensor_shape {
        }
        float_val: 1.0
      }
    }
  }
}
node {
  name: "sub"
  op: "Sub"
  input: "sub/x"
  input: "Dropout_Keep_Probability"
  attr {
    key: "T"
    value {
      type: DT_FLOAT
    }
  }
}
node {
  name: "dropout/Const"
  op: "Const"
  attr {
    key: "dtype"
    value {
      type: DT_FLOAT
    }
  }
  attr {
    key: "value"
    value {
      tensor {
        dtype: DT_FLOAT
        tensor_shape {
        }
        float_val: 1.0
      }
    }
  }
}
node {
  name: "dropout/Sub"
  op: "Sub"
  input: "dropout/Const"
  input: "sub"
  attr {
    key: "T"
    value {
      type: DT_FLOAT
    }
  }
}
node {
  name: "dropout/RealDiv"
  op: "RealDiv"
  input: "Reshape"
  input: "dropout/Sub"
  attr {
    key: "T"
    value {
      type: DT_FLOAT
    }
  }
}
node {
  name: "dropout/Shape"
  op: "Const"
  attr {
    key: "dtype"
    value {
      type: DT_INT32
    }
  }
  attr {
    key: "value"
    value {
      tensor {
        dtype: DT_INT32
        tensor_shape {
          dim {
            size: 2
          }
        }
        tensor_content: "P\000\000\000\000\020\000\000"
      }
    }
  }
}
node {
  name: "dropout/random_uniform/RandomUniform"
  op: "RandomUniform"
  input: "dropout/Shape"
  attr {
    key: "T"
    value {
      type: DT_INT32
    }
  }
  attr {
    key: "dtype"
    value {
      type: DT_FLOAT
    }
  }
  attr {
    key: "seed"
    value {
      i: 0
    }
  }
  attr {
    key: "seed2"
    value {
      i: 0
    }
  }
}
node {
  name: "dropout/GreaterEqual"
  op: "GreaterEqual"
  input: "dropout/random_uniform/RandomUniform"
  input: "sub"
  attr {
    key: "T"
    value {
      type: DT_FLOAT
    }
  }
}
node {
  name: "dropout/Cast"
  op: "Cast"
  input: "dropout/GreaterEqual"
  attr {
    key: "DstT"
    value {
      type: DT_FLOAT
    }
  }
  attr {
    key: "SrcT"
    value {
      type: DT_BOOL
    }
  }
  attr {
    key: "Truncate"
    value {
      b: false
    }
  }
}
node {
  name: "dropout/Mul"
  op: "Mul"
  input: "dropout/RealDiv"
  input: "dropout/Cast"
  attr {
    key: "T"
    value {
      type: DT_FLOAT
    }
  }
}
node {
  name: "xw_plus_b/ReadVariableOp"
  op: "ReadVariableOp"
  input: "Im2Cap/W_im2cap"
  attr {
    key: "dtype"
    value {
      type: DT_FLOAT
    }
  }
}
node {
  name: "xw_plus_b/ReadVariableOp_1"
  op: "ReadVariableOp"
  input: "Im2Cap/b_im2cap"
  attr {
    key: "dtype"
    value {
      type: DT_FLOAT
    }
  }
}
node {
  name: "xw_plus_b/MatMul"
  op: "MatMul"
  input: "dropout/Mul"
  input: "xw_plus_b/ReadVariableOp"
  attr {
    key: "T"
    value {
      type: DT_FLOAT
    }
  }
  attr {
    key: "transpose_a"
    value {
      b: false
    }
  }
  attr {
    key: "transpose_b"
    value {
      b: false
    }
  }
}
node {
  name: "xw_plus_b"
  op: "BiasAdd"
  input: "xw_plus_b/MatMul"
  input: "xw_plus_b/ReadVariableOp_1"
  attr {
    key: "T"
    value {
      type: DT_FLOAT
    }
  }
  attr {
    key: "data_format"
    value {
      s: "NHWC"
    }
  }
}
node {
  name: "Reshape_1/shape"
  op: "Const"
  attr {
    key: "dtype"
    value {
      type: DT_INT32
    }
  }
  attr {
    key: "value"
    value {
      tensor {
        dtype: DT_INT32
        tensor_shape {
          dim {
            size: 3
          }
        }
        tensor_content: "\001\000\000\000P\000\000\000\364\001\000\000"
      }
    }
  }
}
node {
  name: "Reshape_1"
  op: "Reshape"
  input: "xw_plus_b"
  input: "Reshape_1/shape"
  attr {
    key: "T"
    value {
      type: DT_FLOAT
    }
  }
  attr {
    key: "Tshape"
    value {
      type: DT_INT32
    }
  }
}
node {
  name: "zeros/shape_as_tensor"
  op: "Const"
  attr {
    key: "dtype"
    value {
      type: DT_INT32
    }
  }
  attr {
    key: "value"
    value {
      tensor {
        dtype: DT_INT32
        tensor_shape {
          dim {
            size: 3
          }
        }
        tensor_content: "\001\000\000\000O\000\000\000\364\001\000\000"
      }
    }
  }
}
node {
  name: "zeros/Const"
  op: "Const"
  attr {
    key: "dtype"
    value {
      type: DT_FLOAT
    }
  }
  attr {
    key: "value"
    value {
      tensor {
        dtype: DT_FLOAT
        tensor_shape {
        }
        float_val: 0.0
      }
    }
  }
}
node {
  name: "zeros"
  op: "Fill"
  input: "zeros/shape_as_tensor"
  input: "zeros/Const"
  attr {
    key: "T"
    value {
      type: DT_FLOAT
    }
  }
  attr {
    key: "index_type"
    value {
      type: DT_INT32
    }
  }
}
node {
  name: "concat/axis"
  op: "Const"
  attr {
    key: "dtype"
    value {
      type: DT_INT32
    }
  }
  attr {
    key: "value"
    value {
      tensor {
        dtype: DT_INT32
        tensor_shape {
        }
        int_val: 1
      }
    }
  }
}
node {
  name: "concat"
  op: "ConcatV2"
  input: "Reshape_1"
  input: "zeros"
  input: "concat/axis"
  attr {
    key: "N"
    value {
      i: 2
    }
  }
  attr {
    key: "T"
    value {
      type: DT_FLOAT
    }
  }
  attr {
    key: "Tidx"
    value {
      type: DT_INT32
    }
  }
}
node {
  name: "LSTM_Video_1/rnn/Rank"
  op: "Const"
  attr {
    key: "dtype"
    value {
      type: DT_INT32
    }
  }
  attr {
    key: "value"
    value {
      tensor {
        dtype: DT_INT32
        tensor_shape {
        }
        int_val: 3
      }
    }
  }
}
node {
  name: "LSTM_Video_1/rnn/range/start"
  op: "Const"
  attr {
    key: "dtype"
    value {
      type: DT_INT32
    }
  }
  attr {
    key: "value"
    value {
      tensor {
        dtype: DT_INT32
        tensor_shape {
        }
        int_val: 2
      }
    }
  }
}
node {
  name: "LSTM_Video_1/rnn/range/delta"
  op: "Const"
  attr {
    key: "dtype"
    value {
      type: DT_INT32
    }
  }
  attr {
    key: "value"
    value {
      tensor {
        dtype: DT_INT32
        tensor_shape {
        }
        int_val: 1
      }
    }
  }
}
node {
  name: "LSTM_Video_1/rnn/range"
  op: "Range"
  input: "LSTM_Video_1/rnn/range/start"
  input: "LSTM_Video_1/rnn/Rank"
  input: "LSTM_Video_1/rnn/range/delta"
  attr {
    key: "Tidx"
    value {
      type: DT_INT32
    }
  }
}
node {
  name: "LSTM_Video_1/rnn/concat/values_0"
  op: "Const"
  attr {
    key: "dtype"
    value {
      type: DT_INT32
    }
  }
  attr {
    key: "value"
    value {
      tensor {
        dtype: DT_INT32
        tensor_shape {
          dim {
            size: 2
          }
        }
        tensor_content: "\001\000\000\000\000\000\000\000"
      }
    }
  }
}
node {
  name: "LSTM_Video_1/rnn/concat/axis"
  op: "Const"
  attr {
    key: "dtype"
    value {
      type: DT_INT32
    }
  }
  attr {
    key: "value"
    value {
      tensor {
        dtype: DT_INT32
        tensor_shape {
        }
        int_val: 0
      }
    }
  }
}
node {
  name: "LSTM_Video_1/rnn/concat"
  op: "ConcatV2"
  input: "LSTM_Video_1/rnn/concat/values_0"
  input: "LSTM_Video_1/rnn/range"
  input: "LSTM_Video_1/rnn/concat/axis"
  attr {
    key: "N"
    value {
      i: 2
    }
  }
  attr {
    key: "T"
    value {
      type: DT_INT32
    }
  }
  attr {
    key: "Tidx"
    value {
      type: DT_INT32
    }
  }
}
node {
  name: "LSTM_Video_1/rnn/transpose"
  op: "Transpose"
  input: "concat"
  input: "LSTM_Video_1/rnn/concat"
  attr {
    key: "T"
    value {
      type: DT_FLOAT
    }
  }
  attr {
    key: "Tperm"
    value {
      type: DT_INT32
    }
  }
}
node {
  name: "LSTM_Video_1/rnn/DropoutWrapperZeroState/BasicLSTMCellZeroState/Const"
  op: "Const"
  attr {
    key: "dtype"
    value {
      type: DT_INT32
    }
  }
  attr {
    key: "value"
    value {
      tensor {
        dtype: DT_INT32
        tensor_shape {
          dim {
            size: 1
          }
        }
        int_val: 1
      }
    }
  }
}
node {
  name: "LSTM_Video_1/rnn/DropoutWrapperZeroState/BasicLSTMCellZeroState/Const_1"
  op: "Const"
  attr {
    key: "dtype"
    value {
      type: DT_INT32
    }
  }
  attr {
    key: "value"
    value {
      tensor {
        dtype: DT_INT32
        tensor_shape {
          dim {
            size: 1
          }
        }
        int_val: 500
      }
    }
  }
}
node {
  name: "LSTM_Video_1/rnn/DropoutWrapperZeroState/BasicLSTMCellZeroState/concat/axis"
  op: "Const"
  attr {
    key: "dtype"
    value {
      type: DT_INT32
    }
  }
  attr {
    key: "value"
    value {
      tensor {
        dtype: DT_INT32
        tensor_shape {
        }
        int_val: 0
      }
    }
  }
}
node {
  name: "LSTM_Video_1/rnn/DropoutWrapperZeroState/BasicLSTMCellZeroState/concat"
  op: "ConcatV2"
  input: "LSTM_Video_1/rnn/DropoutWrapperZeroState/BasicLSTMCellZeroState/Const"
  input: "LSTM_Video_1/rnn/DropoutWrapperZeroState/BasicLSTMCellZeroState/Const_1"
  input: "LSTM_Video_1/rnn/DropoutWrapperZeroState/BasicLSTMCellZeroState/concat/axis"
  attr {
    key: "N"
    value {
      i: 2
    }
  }
  attr {
    key: "T"
    value {
      type: DT_INT32
    }
  }
  attr {
    key: "Tidx"
    value {
      type: DT_INT32
    }
  }
}
node {
  name: "LSTM_Video_1/rnn/DropoutWrapperZeroState/BasicLSTMCellZeroState/zeros/Const"
  op: "Const"
  attr {
    key: "dtype"
    value {
      type: DT_FLOAT
    }
  }
  attr {
    key: "value"
    value {
      tensor {
        dtype: DT_FLOAT
        tensor_shape {
        }
        float_val: 0.0
      }
    }
  }
}
node {
  name: "LSTM_Video_1/rnn/DropoutWrapperZeroState/BasicLSTMCellZeroState/zeros"
  op: "Fill"
  input: "LSTM_Video_1/rnn/DropoutWrapperZeroState/BasicLSTMCellZeroState/concat"
  input: "LSTM_Video_1/rnn/DropoutWrapperZeroState/BasicLSTMCellZeroState/zeros/Const"
  attr {
    key: "T"
    value {
      type: DT_FLOAT
    }
  }
  attr {
    key: "index_type"
    value {
      type: DT_INT32
    }
  }
}
node {
  name: "LSTM_Video_1/rnn/DropoutWrapperZeroState/BasicLSTMCellZeroState/Const_2"
  op: "Const"
  attr {
    key: "dtype"
    value {
      type: DT_INT32
    }
  }
  attr {
    key: "value"
    value {
      tensor {
        dtype: DT_INT32
        tensor_shape {
          dim {
            size: 1
          }
        }
        int_val: 1
      }
    }
  }
}
node {
  name: "LSTM_Video_1/rnn/DropoutWrapperZeroState/BasicLSTMCellZeroState/Const_3"
  op: "Const"
  attr {
    key: "dtype"
    value {
      type: DT_INT32
    }
  }
  attr {
    key: "value"
    value {
      tensor {
        dtype: DT_INT32
        tensor_shape {
          dim {
            size: 1
          }
        }
        int_val: 500
      }
    }
  }
}
node {
  name: "LSTM_Video_1/rnn/DropoutWrapperZeroState/BasicLSTMCellZeroState/Const_4"
  op: "Const"
  attr {
    key: "dtype"
    value {
      type: DT_INT32
    }
  }
  attr {
    key: "value"
    value {
      tensor {
        dtype: DT_INT32
        tensor_shape {
          dim {
            size: 1
          }
        }
        int_val: 1
      }
    }
  }
}
node {
  name: "LSTM_Video_1/rnn/DropoutWrapperZeroState/BasicLSTMCellZeroState/Const_5"
  op: "Const"
  attr {
    key: "dtype"
    value {
      type: DT_INT32
    }
  }
  attr {
    key: "value"
    value {
      tensor {
        dtype: DT_INT32
        tensor_shape {
          dim {
            size: 1
          }
        }
        int_val: 500
      }
    }
  }
}
node {
  name: "LSTM_Video_1/rnn/DropoutWrapperZeroState/BasicLSTMCellZeroState/concat_1/axis"
  op: "Const"
  attr {
    key: "dtype"
    value {
      type: DT_INT32
    }
  }
  attr {
    key: "value"
    value {
      tensor {
        dtype: DT_INT32
        tensor_shape {
        }
        int_val: 0
      }
    }
  }
}
node {
  name: "LSTM_Video_1/rnn/DropoutWrapperZeroState/BasicLSTMCellZeroState/concat_1"
  op: "ConcatV2"
  input: "LSTM_Video_1/rnn/DropoutWrapperZeroState/BasicLSTMCellZeroState/Const_4"
  input: "LSTM_Video_1/rnn/DropoutWrapperZeroState/BasicLSTMCellZeroState/Const_5"
  input: "LSTM_Video_1/rnn/DropoutWrapperZeroState/BasicLSTMCellZeroState/concat_1/axis"
  attr {
    key: "N"
    value {
      i: 2
    }
  }
  attr {
    key: "T"
    value {
      type: DT_INT32
    }
  }
  attr {
    key: "Tidx"
    value {
      type: DT_INT32
    }
  }
}
node {
  name: "LSTM_Video_1/rnn/DropoutWrapperZeroState/BasicLSTMCellZeroState/zeros_1/Const"
  op: "Const"
  attr {
    key: "dtype"
    value {
      type: DT_FLOAT
    }
  }
  attr {
    key: "value"
    value {
      tensor {
        dtype: DT_FLOAT
        tensor_shape {
        }
        float_val: 0.0
      }
    }
  }
}
node {
  name: "LSTM_Video_1/rnn/DropoutWrapperZeroState/BasicLSTMCellZeroState/zeros_1"
  op: "Fill"
  input: "LSTM_Video_1/rnn/DropoutWrapperZeroState/BasicLSTMCellZeroState/concat_1"
  input: "LSTM_Video_1/rnn/DropoutWrapperZeroState/BasicLSTMCellZeroState/zeros_1/Const"
  attr {
    key: "T"
    value {
      type: DT_FLOAT
    }
  }
  attr {
    key: "index_type"
    value {
      type: DT_INT32
    }
  }
}
node {
  name: "LSTM_Video_1/rnn/DropoutWrapperZeroState/BasicLSTMCellZeroState/Const_6"
  op: "Const"
  attr {
    key: "dtype"
    value {
      type: DT_INT32
    }
  }
  attr {
    key: "value"
    value {
      tensor {
        dtype: DT_INT32
        tensor_shape {
          dim {
            size: 1
          }
        }
        int_val: 1
      }
    }
  }
}
node {
  name: "LSTM_Video_1/rnn/DropoutWrapperZeroState/BasicLSTMCellZeroState/Const_7"
  op: "Const"
  attr {
    key: "dtype"
    value {
      type: DT_INT32
    }
  }
  attr {
    key: "value"
    value {
      tensor {
        dtype: DT_INT32
        tensor_shape {
          dim {
            size: 1
          }
        }
        int_val: 500
      }
    }
  }
}
node {
  name: "LSTM_Video_1/rnn/Shape"
  op: "Const"
  attr {
    key: "dtype"
    value {
      type: DT_INT32
    }
  }
  attr {
    key: "value"
    value {
      tensor {
        dtype: DT_INT32
        tensor_shape {
          dim {
            size: 3
          }
        }
        tensor_content: "\237\000\000\000\001\000\000\000\364\001\000\000"
      }
    }
  }
}
node {
  name: "LSTM_Video_1/rnn/strided_slice/stack"
  op: "Const"
  attr {
    key: "dtype"
    value {
      type: DT_INT32
    }
  }
  attr {
    key: "value"
    value {
      tensor {
        dtype: DT_INT32
        tensor_shape {
          dim {
            size: 1
          }
        }
        int_val: 0
      }
    }
  }
}
node {
  name: "LSTM_Video_1/rnn/strided_slice/stack_1"
  op: "Const"
  attr {
    key: "dtype"
    value {
      type: DT_INT32
    }
  }
  attr {
    key: "value"
    value {
      tensor {
        dtype: DT_INT32
        tensor_shape {
          dim {
            size: 1
          }
        }
        int_val: 1
      }
    }
  }
}
node {
  name: "LSTM_Video_1/rnn/strided_slice/stack_2"
  op: "Const"
  attr {
    key: "dtype"
    value {
      type: DT_INT32
    }
  }
  attr {
    key: "value"
    value {
      tensor {
        dtype: DT_INT32
        tensor_shape {
          dim {
            size: 1
          }
        }
        int_val: 1
      }
    }
  }
}
node {
  name: "LSTM_Video_1/rnn/strided_slice"
  op: "StridedSlice"
  input: "LSTM_Video_1/rnn/Shape"
  input: "LSTM_Video_1/rnn/strided_slice/stack"
  input: "LSTM_Video_1/rnn/strided_slice/stack_1"
  input: "LSTM_Video_1/rnn/strided_slice/stack_2"
  attr {
    key: "Index"
    value {
      type: DT_INT32
    }
  }
  attr {
    key: "T"
    value {
      type: DT_INT32
    }
  }
  attr {
    key: "begin_mask"
    value {
      i: 0
    }
  }
  attr {
    key: "ellipsis_mask"
    value {
      i: 0
    }
  }
  attr {
    key: "end_mask"
    value {
      i: 0
    }
  }
  attr {
    key: "new_axis_mask"
    value {
      i: 0
    }
  }
  attr {
    key: "shrink_axis_mask"
    value {
      i: 1
    }
  }
}
node {
  name: "LSTM_Video_1/rnn/Const"
  op: "Const"
  attr {
    key: "dtype"
    value {
      type: DT_INT32
    }
  }
  attr {
    key: "value"
    value {
      tensor {
        dtype: DT_INT32
        tensor_shape {
          dim {
            size: 1
          }
        }
        int_val: 1
      }
    }
  }
}
node {
  name: "LSTM_Video_1/rnn/Const_1"
  op: "Const"
  attr {
    key: "dtype"
    value {
      type: DT_INT32
    }
  }
  attr {
    key: "value"
    value {
      tensor {
        dtype: DT_INT32
        tensor_shape {
          dim {
            size: 1
          }
        }
        int_val: 500
      }
    }
  }
}
node {
  name: "LSTM_Video_1/rnn/concat_1/axis"
  op: "Const"
  attr {
    key: "dtype"
    value {
      type: DT_INT32
    }
  }
  attr {
    key: "value"
    value {
      tensor {
        dtype: DT_INT32
        tensor_shape {
        }
        int_val: 0
      }
    }
  }
}
node {
  name: "LSTM_Video_1/rnn/concat_1"
  op: "ConcatV2"
  input: "LSTM_Video_1/rnn/Const"
  input: "LSTM_Video_1/rnn/Const_1"
  input: "LSTM_Video_1/rnn/concat_1/axis"
  attr {
    key: "N"
    value {
      i: 2
    }
  }
  attr {
    key: "T"
    value {
      type: DT_INT32
    }
  }
  attr {
    key: "Tidx"
    value {
      type: DT_INT32
    }
  }
}
node {
  name: "LSTM_Video_1/rnn/zeros/Const"
  op: "Const"
  attr {
    key: "dtype"
    value {
      type: DT_FLOAT
    }
  }
  attr {
    key: "value"
    value {
      tensor {
        dtype: DT_FLOAT
        tensor_shape {
        }
        float_val: 0.0
      }
    }
  }
}
node {
  name: "LSTM_Video_1/rnn/zeros"
  op: "Fill"
  input: "LSTM_Video_1/rnn/concat_1"
  input: "LSTM_Video_1/rnn/zeros/Const"
  attr {
    key: "T"
    value {
      type: DT_FLOAT
    }
  }
  attr {
    key: "index_type"
    value {
      type: DT_INT32
    }
  }
}
node {
  name: "LSTM_Video_1/rnn/time"
  op: "Const"
  attr {
    key: "dtype"
    value {
      type: DT_INT32
    }
  }
  attr {
    key: "value"
    value {
      tensor {
        dtype: DT_INT32
        tensor_shape {
        }
        int_val: 0
      }
    }
  }
}
node {
  name: "LSTM_Video_1/rnn/TensorArrayV2/element_shape"
  op: "Const"
  attr {
    key: "dtype"
    value {
      type: DT_INT32
    }
  }
  attr {
    key: "value"
    value {
      tensor {
        dtype: DT_INT32
        tensor_shape {
          dim {
            size: 2
          }
        }
        tensor_content: "\001\000\000\000\364\001\000\000"
      }
    }
  }
}
node {
  name: "LSTM_Video_1/rnn/TensorArrayV2"
  op: "TensorListReserve"
  input: "LSTM_Video_1/rnn/TensorArrayV2/element_shape"
  input: "LSTM_Video_1/rnn/strided_slice"
  attr {
    key: "element_dtype"
    value {
      type: DT_FLOAT
    }
  }
  attr {
    key: "shape_type"
    value {
      type: DT_INT32
    }
  }
  experimental_type {
    type_id: TFT_PRODUCT
    args {
      type_id: TFT_ARRAY
      args {
        type_id: TFT_TENSOR
        args {
          type_id: TFT_FLOAT
        }
      }
    }
  }
}
node {
  name: "LSTM_Video_1/rnn/TensorArrayV2_1/element_shape"
  op: "Const"
  attr {
    key: "dtype"
    value {
      type: DT_INT32
    }
  }
  attr {
    key: "value"
    value {
      tensor {
        dtype: DT_INT32
        tensor_shape {
          dim {
            size: 2
          }
        }
        tensor_content: "\001\000\000\000\364\001\000\000"
      }
    }
  }
}
node {
  name: "LSTM_Video_1/rnn/TensorArrayV2_1"
  op: "TensorListReserve"
  input: "LSTM_Video_1/rnn/TensorArrayV2_1/element_shape"
  input: "LSTM_Video_1/rnn/strided_slice"
  attr {
    key: "element_dtype"
    value {
      type: DT_FLOAT
    }
  }
  attr {
    key: "shape_type"
    value {
      type: DT_INT32
    }
  }
  experimental_type {
    type_id: TFT_PRODUCT
    args {
      type_id: TFT_ARRAY
      args {
        type_id: TFT_TENSOR
        args {
          type_id: TFT_FLOAT
        }
      }
    }
  }
}
node {
  name: "LSTM_Video_1/rnn/TensorArrayUnstack/TensorListFromTensor/element_shape"
  op: "Const"
  attr {
    key: "dtype"
    value {
      type: DT_INT32
    }
  }
  attr {
    key: "value"
    value {
      tensor {
        dtype: DT_INT32
        tensor_shape {
          dim {
            size: 2
          }
        }
        tensor_content: "\001\000\000\000\364\001\000\000"
      }
    }
  }
}
node {
  name: "LSTM_Video_1/rnn/TensorArrayUnstack/TensorListFromTensor"
  op: "TensorListFromTensor"
  input: "LSTM_Video_1/rnn/transpose"
  input: "LSTM_Video_1/rnn/TensorArrayUnstack/TensorListFromTensor/element_shape"
  attr {
    key: "element_dtype"
    value {
      type: DT_FLOAT
    }
  }
  attr {
    key: "shape_type"
    value {
      type: DT_INT32
    }
  }
  experimental_type {
    type_id: TFT_PRODUCT
    args {
      type_id: TFT_ARRAY
      args {
        type_id: TFT_TENSOR
        args {
          type_id: TFT_FLOAT
        }
      }
    }
  }
}
node {
  name: "LSTM_Video_1/rnn/Maximum/x"
  op: "Const"
  attr {
    key: "dtype"
    value {
      type: DT_INT32
    }
  }
  attr {
    key: "value"
    value {
      tensor {
        dtype: DT_INT32
        tensor_shape {
        }
        int_val: 1
      }
    }
  }
}
node {
  name: "LSTM_Video_1/rnn/Maximum"
  op: "Maximum"
  input: "LSTM_Video_1/rnn/Maximum/x"
  input: "LSTM_Video_1/rnn/strided_slice"
  attr {
    key: "T"
    value {
      type: DT_INT32
    }
  }
}
node {
  name: "LSTM_Video_1/rnn/Minimum"
  op: "Minimum"
  input: "LSTM_Video_1/rnn/strided_slice"
  input: "LSTM_Video_1/rnn/Maximum"
  attr {
    key: "T"
    value {
      type: DT_INT32
    }
  }
}
node {
  name: "LSTM_Video_1/rnn/while/loop_counter"
  op: "Const"
  attr {
    key: "dtype"
    value {
      type: DT_INT32
    }
  }
  attr {
    key: "value"
    value {
      tensor {
        dtype: DT_INT32
        tensor_shape {
        }
        int_val: 0
      }
    }
  }
}
node {
  name: "LSTM_Video/rnn/basic_lstm_cell/kernel/Initializer/random_uniform/shape"
  op: "Const"
  attr {
    key: "_class"
    value {
      list {
        s: "loc:@LSTM_Video/rnn/basic_lstm_cell/kernel"
      }
    }
  }
  attr {
    key: "dtype"
    value {
      type: DT_INT32
    }
  }
  attr {
    key: "value"
    value {
      tensor {
        dtype: DT_INT32
        tensor_shape {
          dim {
            size: 2
          }
        }
        tensor_content: "\350\003\000\000\320\007\000\000"
      }
    }
  }
}
node {
  name: "LSTM_Video/rnn/basic_lstm_cell/kernel/Initializer/random_uniform/min"
  op: "Const"
  attr {
    key: "_class"
    value {
      list {
        s: "loc:@LSTM_Video/rnn/basic_lstm_cell/kernel"
      }
    }
  }
  attr {
    key: "dtype"
    value {
      type: DT_FLOAT
    }
  }
  attr {
    key: "value"
    value {
      tensor {
        dtype: DT_FLOAT
        tensor_shape {
        }
        float_val: -0.04472136124968529
      }
    }
  }
}
node {
  name: "LSTM_Video/rnn/basic_lstm_cell/kernel/Initializer/random_uniform/max"
  op: "Const"
  attr {
    key: "_class"
    value {
      list {
        s: "loc:@LSTM_Video/rnn/basic_lstm_cell/kernel"
      }
    }
  }
  attr {
    key: "dtype"
    value {
      type: DT_FLOAT
    }
  }
  attr {
    key: "value"
    value {
      tensor {
        dtype: DT_FLOAT
        tensor_shape {
        }
        float_val: 0.04472136124968529
      }
    }
  }
}
node {
  name: "LSTM_Video/rnn/basic_lstm_cell/kernel/Initializer/random_uniform/RandomUniform"
  op: "RandomUniform"
  input: "LSTM_Video/rnn/basic_lstm_cell/kernel/Initializer/random_uniform/shape"
  attr {
    key: "T"
    value {
      type: DT_INT32
    }
  }
  attr {
    key: "_class"
    value {
      list {
        s: "loc:@LSTM_Video/rnn/basic_lstm_cell/kernel"
      }
    }
  }
  attr {
    key: "dtype"
    value {
      type: DT_FLOAT
    }
  }
  attr {
    key: "seed"
    value {
      i: 0
    }
  }
  attr {
    key: "seed2"
    value {
      i: 0
    }
  }
}
node {
  name: "LSTM_Video/rnn/basic_lstm_cell/kernel/Initializer/random_uniform/sub"
  op: "Sub"
  input: "LSTM_Video/rnn/basic_lstm_cell/kernel/Initializer/random_uniform/max"
  input: "LSTM_Video/rnn/basic_lstm_cell/kernel/Initializer/random_uniform/min"
  attr {
    key: "T"
    value {
      type: DT_FLOAT
    }
  }
  attr {
    key: "_class"
    value {
      list {
        s: "loc:@LSTM_Video/rnn/basic_lstm_cell/kernel"
      }
    }
  }
}
node {
  name: "LSTM_Video/rnn/basic_lstm_cell/kernel/Initializer/random_uniform/mul"
  op: "Mul"
  input: "LSTM_Video/rnn/basic_lstm_cell/kernel/Initializer/random_uniform/RandomUniform"
  input: "LSTM_Video/rnn/basic_lstm_cell/kernel/Initializer/random_uniform/sub"
  attr {
    key: "T"
    value {
      type: DT_FLOAT
    }
  }
  attr {
    key: "_class"
    value {
      list {
        s: "loc:@LSTM_Video/rnn/basic_lstm_cell/kernel"
      }
    }
  }
}
node {
  name: "LSTM_Video/rnn/basic_lstm_cell/kernel/Initializer/random_uniform"
  op: "AddV2"
  input: "LSTM_Video/rnn/basic_lstm_cell/kernel/Initializer/random_uniform/mul"
  input: "LSTM_Video/rnn/basic_lstm_cell/kernel/Initializer/random_uniform/min"
  attr {
    key: "T"
    value {
      type: DT_FLOAT
    }
  }
  attr {
    key: "_class"
    value {
      list {
        s: "loc:@LSTM_Video/rnn/basic_lstm_cell/kernel"
      }
    }
  }
}
node {
  name: "LSTM_Video/rnn/basic_lstm_cell/kernel"
  op: "VarHandleOp"
  attr {
    key: "_class"
    value {
      list {
        s: "loc:@LSTM_Video/rnn/basic_lstm_cell/kernel"
      }
    }
  }
  attr {
    key: "allowed_devices"
    value {
      list {
      }
    }
  }
  attr {
    key: "container"
    value {
      s: ""
    }
  }
  attr {
    key: "dtype"
    value {
      type: DT_FLOAT
    }
  }
  attr {
    key: "shape"
    value {
      shape {
        dim {
          size: 1000
        }
        dim {
          size: 2000
        }
      }
    }
  }
  attr {
    key: "shared_name"
    value {
      s: "LSTM_Video/rnn/basic_lstm_cell/kernel"
    }
  }
}
node {
  name: "LSTM_Video/rnn/basic_lstm_cell/kernel/IsInitialized/VarIsInitializedOp"
  op: "VarIsInitializedOp"
  input: "LSTM_Video/rnn/basic_lstm_cell/kernel"
}
node {
  name: "LSTM_Video/rnn/basic_lstm_cell/kernel/Assign"
  op: "AssignVariableOp"
  input: "LSTM_Video/rnn/basic_lstm_cell/kernel"
  input: "LSTM_Video/rnn/basic_lstm_cell/kernel/Initializer/random_uniform"
  attr {
    key: "dtype"
    value {
      type: DT_FLOAT
    }
  }
  attr {
    key: "validate_shape"
    value {
      b: false
    }
  }
}
node {
  name: "LSTM_Video/rnn/basic_lstm_cell/kernel/Read/ReadVariableOp"
  op: "ReadVariableOp"
  input: "LSTM_Video/rnn/basic_lstm_cell/kernel"
  attr {
    key: "dtype"
    value {
      type: DT_FLOAT
    }
  }
}
node {
  name: "LSTM_Video/rnn/basic_lstm_cell/kernel/Read/Identity"
  op: "Identity"
  input: "LSTM_Video/rnn/basic_lstm_cell/kernel/Read/ReadVariableOp"
  attr {
    key: "T"
    value {
      type: DT_FLOAT
    }
  }
}
node {
  name: "LSTM_Video/rnn/basic_lstm_cell/bias/Initializer/zeros/shape_as_tensor"
  op: "Const"
  attr {
    key: "_class"
    value {
      list {
        s: "loc:@LSTM_Video/rnn/basic_lstm_cell/bias"
      }
    }
  }
  attr {
    key: "dtype"
    value {
      type: DT_INT32
    }
  }
  attr {
    key: "value"
    value {
      tensor {
        dtype: DT_INT32
        tensor_shape {
          dim {
            size: 1
          }
        }
        int_val: 2000
      }
    }
  }
}
node {
  name: "LSTM_Video/rnn/basic_lstm_cell/bias/Initializer/zeros/Const"
  op: "Const"
  attr {
    key: "_class"
    value {
      list {
        s: "loc:@LSTM_Video/rnn/basic_lstm_cell/bias"
      }
    }
  }
  attr {
    key: "dtype"
    value {
      type: DT_FLOAT
    }
  }
  attr {
    key: "value"
    value {
      tensor {
        dtype: DT_FLOAT
        tensor_shape {
        }
        float_val: 0.0
      }
    }
  }
}
node {
  name: "LSTM_Video/rnn/basic_lstm_cell/bias/Initializer/zeros"
  op: "Fill"
  input: "LSTM_Video/rnn/basic_lstm_cell/bias/Initializer/zeros/shape_as_tensor"
  input: "LSTM_Video/rnn/basic_lstm_cell/bias/Initializer/zeros/Const"
  attr {
    key: "T"
    value {
      type: DT_FLOAT
    }
  }
  attr {
    key: "_class"
    value {
      list {
        s: "loc:@LSTM_Video/rnn/basic_lstm_cell/bias"
      }
    }
  }
  attr {
    key: "index_type"
    value {
      type: DT_INT32
    }
  }
}
node {
  name: "LSTM_Video/rnn/basic_lstm_cell/bias"
  op: "VarHandleOp"
  attr {
    key: "_class"
    value {
      list {
        s: "loc:@LSTM_Video/rnn/basic_lstm_cell/bias"
      }
    }
  }
  attr {
    key: "allowed_devices"
    value {
      list {
      }
    }
  }
  attr {
    key: "container"
    value {
      s: ""
    }
  }
  attr {
    key: "dtype"
    value {
      type: DT_FLOAT
    }
  }
  attr {
    key: "shape"
    value {
      shape {
        dim {
          size: 2000
        }
      }
    }
  }
  attr {
    key: "shared_name"
    value {
      s: "LSTM_Video/rnn/basic_lstm_cell/bias"
    }
  }
}
node {
  name: "LSTM_Video/rnn/basic_lstm_cell/bias/IsInitialized/VarIsInitializedOp"
  op: "VarIsInitializedOp"
  input: "LSTM_Video/rnn/basic_lstm_cell/bias"
}
node {
  name: "LSTM_Video/rnn/basic_lstm_cell/bias/Assign"
  op: "AssignVariableOp"
  input: "LSTM_Video/rnn/basic_lstm_cell/bias"
  input: "LSTM_Video/rnn/basic_lstm_cell/bias/Initializer/zeros"
  attr {
    key: "dtype"
    value {
      type: DT_FLOAT
    }
  }
  attr {
    key: "validate_shape"
    value {
      b: false
    }
  }
}
node {
  name: "LSTM_Video/rnn/basic_lstm_cell/bias/Read/ReadVariableOp"
  op: "ReadVariableOp"
  input: "LSTM_Video/rnn/basic_lstm_cell/bias"
  attr {
    key: "dtype"
    value {
      type: DT_FLOAT
    }
  }
}
node {
  name: "LSTM_Video/rnn/basic_lstm_cell/bias/Read/Identity"
  op: "Identity"
  input: "LSTM_Video/rnn/basic_lstm_cell/bias/Read/ReadVariableOp"
  attr {
    key: "T"
    value {
      type: DT_FLOAT
    }
  }
}
node {
  name: "LSTM_Video_1/rnn/while"
  op: "While"
  input: "LSTM_Video_1/rnn/while/loop_counter"
  input: "LSTM_Video_1/rnn/strided_slice"
  input: "LSTM_Video_1/rnn/time"
  input: "LSTM_Video_1/rnn/TensorArrayV2"
  input: "LSTM_Video_1/rnn/DropoutWrapperZeroState/BasicLSTMCellZeroState/zeros"
  input: "LSTM_Video_1/rnn/DropoutWrapperZeroState/BasicLSTMCellZeroState/zeros_1"
  input: "LSTM_Video_1/rnn/Minimum"
  input: "LSTM_Video_1/rnn/TensorArrayUnstack/TensorListFromTensor"
  input: "LSTM_Video/rnn/basic_lstm_cell/kernel/Read/Identity"
  input: "LSTM_Video/rnn/basic_lstm_cell/bias/Read/Identity"
  input: "Dropout_Keep_Probability"
  input: "gradients/LSTM_Video_1/rnn/while_grad/Placeholder_0/accumulator"
  input: "gradients/LSTM_Video_1/rnn/while_grad/gradients/dropout/Mul_grad/Shape_0/accumulator"
  input: "gradients/LSTM_Video_1/rnn/while_grad/gradients/dropout/Mul_grad/Shape_1_0/accumulator"
  input: "gradients/LSTM_Video_1/rnn/while_grad/dropout/Cast_0/accumulator"
  input: "gradients/LSTM_Video_1/rnn/while_grad/dropout/RealDiv_0/accumulator"
  input: "gradients/LSTM_Video_1/rnn/while_grad/gradients/dropout/RealDiv_grad/Shape_1_0/accumulator"
  input: "gradients/LSTM_Video_1/rnn/while_grad/dropout/Sub_0/accumulator"
  input: "gradients/LSTM_Video_1/rnn/while_grad/basic_lstm_cell/Mul_2_0/accumulator"
  input: "gradients/LSTM_Video_1/rnn/while_grad/basic_lstm_cell/Sigmoid_2_0/accumulator"
  input: "gradients/LSTM_Video_1/rnn/while_grad/basic_lstm_cell/Tanh_1_0/accumulator"
  input: "gradients/LSTM_Video_1/rnn/while_grad/gradients/dropout/Sub_grad/Shape_0/accumulator"
  input: "gradients/LSTM_Video_1/rnn/while_grad/gradients/dropout/Sub_grad/Shape_1_0/accumulator"
  input: "gradients/LSTM_Video_1/rnn/while_grad/gradients/sub_grad/Shape_0/accumulator"
  input: "gradients/LSTM_Video_1/rnn/while_grad/gradients/sub_grad/Shape_1_0/accumulator"
  input: "gradients/LSTM_Video_1/rnn/while_grad/basic_lstm_cell/Sigmoid_0/accumulator"
  input: "gradients/LSTM_Video_1/rnn/while_grad/Placeholder_2_0/accumulator"
  input: "gradients/LSTM_Video_1/rnn/while_grad/basic_lstm_cell/Tanh_0/accumulator"
  input: "gradients/LSTM_Video_1/rnn/while_grad/basic_lstm_cell/Sigmoid_1_0/accumulator"
  input: "gradients/LSTM_Video_1/rnn/while_grad/basic_lstm_cell/concat_0/accumulator"
  input: "gradients/LSTM_Video_1/rnn/while_grad/gradients/TensorArrayV2Read/TensorListGetItem_grad/TensorListElementShape_0/accumulator"
  input: "gradients/LSTM_Video_1/rnn/while_grad/gradients/TensorArrayV2Read/TensorListGetItem_grad/TensorListLength_0/accumulator"
  attr {
    key: "T"
    value {
      list {
        type: DT_INT32
        type: DT_INT32
        type: DT_INT32
        type: DT_VARIANT
        type: DT_FLOAT
        type: DT_FLOAT
        type: DT_INT32
        type: DT_VARIANT
        type: DT_FLOAT
        type: DT_FLOAT
        type: DT_FLOAT
        type: DT_VARIANT
        type: DT_VARIANT
        type: DT_VARIANT
        type: DT_VARIANT
        type: DT_VARIANT
        type: DT_VARIANT
        type: DT_VARIANT
        type: DT_VARIANT
        type: DT_VARIANT
        type: DT_VARIANT
        type: DT_VARIANT
        type: DT_VARIANT
        type: DT_VARIANT
        type: DT_VARIANT
        type: DT_VARIANT
        type: DT_VARIANT
        type: DT_VARIANT
        type: DT_VARIANT
        type: DT_VARIANT
        type: DT_VARIANT
        type: DT_VARIANT
      }
    }
  }
  attr {
    key: "_lower_using_switch_merge"
    value {
      b: true
    }
  }
  attr {
    key: "_num_original_outputs"
    value {
      i: 32
    }
  }
  attr {
    key: "_read_only_resource_inputs"
    value {
      list {
      }
    }
  }
  attr {
    key: "_stateful_parallelism"
    value {
      b: false
    }
  }
  attr {
    key: "body"
    value {
      func {
        name: "LSTM_Video_1_rnn_while_body_3648_rewritten"
      }
    }
  }
  attr {
    key: "cond"
    value {
      func {
        name: "LSTM_Video_1_rnn_while_cond_3647_rewritten"
      }
    }
  }
  attr {
    key: "output_shapes"
    value {
      list {
        shape {
        }
        shape {
        }
        shape {
        }
        shape {
        }
        shape {
          dim {
            size: 1
          }
          dim {
            size: 500
          }
        }
        shape {
          dim {
            size: 1
          }
          dim {
            size: 500
          }
        }
        shape {
        }
        shape {
        }
        shape {
          dim {
            size: 1000
          }
          dim {
            size: 2000
          }
        }
        shape {
          dim {
            size: 2000
          }
        }
        shape {
          unknown_rank: true
        }
        shape {
        }
        shape {
        }
        shape {
        }
        shape {
        }
        shape {
        }
        shape {
        }
        shape {
        }
        shape {
        }
        shape {
        }
        shape {
        }
        shape {
        }
        shape {
        }
        shape {
        }
        shape {
        }
        shape {
        }
        shape {
        }
        shape {
        }
        shape {
        }
        shape {
        }
        shape {
        }
        shape {
        }
      }
    }
  }
  attr {
    key: "parallel_iterations"
    value {
      i: 32
    }
  }
}
node {
  name: "LSTM_Video_1/rnn/while/Identity"
  op: "Identity"
  input: "LSTM_Video_1/rnn/while"
  attr {
    key: "T"
    value {
      type: DT_INT32
    }
  }
}
node {
  name: "LSTM_Video_1/rnn/while/Identity_1"
  op: "Identity"
  input: "LSTM_Video_1/rnn/while:1"
  attr {
    key: "T"
    value {
      type: DT_INT32
    }
  }
}
node {
  name: "LSTM_Video_1/rnn/while/Identity_2"
  op: "Identity"
  input: "LSTM_Video_1/rnn/while:2"
  attr {
    key: "T"
    value {
      type: DT_INT32
    }
  }
}
node {
  name: "LSTM_Video_1/rnn/while/Identity_3"
  op: "Identity"
  input: "LSTM_Video_1/rnn/while:3"
  attr {
    key: "T"
    value {
      type: DT_VARIANT
    }
  }
}
node {
  name: "LSTM_Video_1/rnn/while/Identity_4"
  op: "Identity"
  input: "LSTM_Video_1/rnn/while:4"
  attr {
    key: "T"
    value {
      type: DT_FLOAT
    }
  }
}
node {
  name: "LSTM_Video_1/rnn/while/Identity_5"
  op: "Identity"
  input: "LSTM_Video_1/rnn/while:5"
  attr {
    key: "T"
    value {
      type: DT_FLOAT
    }
  }
}
node {
  name: "LSTM_Video_1/rnn/while/Identity_6"
  op: "Identity"
  input: "LSTM_Video_1/rnn/while:6"
  attr {
    key: "T"
    value {
      type: DT_INT32
    }
  }
}
node {
  name: "LSTM_Video_1/rnn/while/Identity_7"
  op: "Identity"
  input: "LSTM_Video_1/rnn/while:7"
  attr {
    key: "T"
    value {
      type: DT_VARIANT
    }
  }
}
node {
  name: "LSTM_Video_1/rnn/while/Identity_8"
  op: "Identity"
  input: "LSTM_Video_1/rnn/while:8"
  attr {
    key: "T"
    value {
      type: DT_FLOAT
    }
  }
}
node {
  name: "LSTM_Video_1/rnn/while/Identity_9"
  op: "Identity"
  input: "LSTM_Video_1/rnn/while:9"
  attr {
    key: "T"
    value {
      type: DT_FLOAT
    }
  }
}
node {
  name: "LSTM_Video_1/rnn/while/Identity_10"
  op: "Identity"
  input: "LSTM_Video_1/rnn/while:10"
  attr {
    key: "T"
    value {
      type: DT_FLOAT
    }
  }
}
node {
  name: "LSTM_Video_1/rnn/TensorArrayV2Stack/TensorListStack/element_shape"
  op: "Const"
  attr {
    key: "dtype"
    value {
      type: DT_INT32
    }
  }
  attr {
    key: "value"
    value {
      tensor {
        dtype: DT_INT32
        tensor_shape {
          dim {
            size: 2
          }
        }
        tensor_content: "\001\000\000\000\364\001\000\000"
      }
    }
  }
}
node {
  name: "LSTM_Video_1/rnn/TensorArrayV2Stack/TensorListStack"
  op: "TensorListStack"
  input: "LSTM_Video_1/rnn/while/Identity_3"
  input: "LSTM_Video_1/rnn/TensorArrayV2Stack/TensorListStack/element_shape"
  attr {
    key: "element_dtype"
    value {
      type: DT_FLOAT
    }
  }
  attr {
    key: "num_elements"
    value {
      i: -1
    }
  }
}
node {
  name: "LSTM_Video_1/rnn/Const_2"
  op: "Const"
  attr {
    key: "dtype"
    value {
      type: DT_INT32
    }
  }
  attr {
    key: "value"
    value {
      tensor {
        dtype: DT_INT32
        tensor_shape {
          dim {
            size: 2
          }
        }
        tensor_content: "\237\000\000\000\001\000\000\000"
      }
    }
  }
}
node {
  name: "LSTM_Video_1/rnn/Const_3"
  op: "Const"
  attr {
    key: "dtype"
    value {
      type: DT_INT32
    }
  }
  attr {
    key: "value"
    value {
      tensor {
        dtype: DT_INT32
        tensor_shape {
          dim {
            size: 1
          }
        }
        int_val: 500
      }
    }
  }
}
node {
  name: "LSTM_Video_1/rnn/Rank_1"
  op: "Const"
  attr {
    key: "dtype"
    value {
      type: DT_INT32
    }
  }
  attr {
    key: "value"
    value {
      tensor {
        dtype: DT_INT32
        tensor_shape {
        }
        int_val: 3
      }
    }
  }
}
node {
  name: "LSTM_Video_1/rnn/range_1/start"
  op: "Const"
  attr {
    key: "dtype"
    value {
      type: DT_INT32
    }
  }
  attr {
    key: "value"
    value {
      tensor {
        dtype: DT_INT32
        tensor_shape {
        }
        int_val: 2
      }
    }
  }
}
node {
  name: "LSTM_Video_1/rnn/range_1/delta"
  op: "Const"
  attr {
    key: "dtype"
    value {
      type: DT_INT32
    }
  }
  attr {
    key: "value"
    value {
      tensor {
        dtype: DT_INT32
        tensor_shape {
        }
        int_val: 1
      }
    }
  }
}
node {
  name: "LSTM_Video_1/rnn/range_1"
  op: "Range"
  input: "LSTM_Video_1/rnn/range_1/start"
  input: "LSTM_Video_1/rnn/Rank_1"
  input: "LSTM_Video_1/rnn/range_1/delta"
  attr {
    key: "Tidx"
    value {
      type: DT_INT32
    }
  }
}
node {
  name: "LSTM_Video_1/rnn/concat_2/values_0"
  op: "Const"
  attr {
    key: "dtype"
    value {
      type: DT_INT32
    }
  }
  attr {
    key: "value"
    value {
      tensor {
        dtype: DT_INT32
        tensor_shape {
          dim {
            size: 2
          }
        }
        tensor_content: "\001\000\000\000\000\000\000\000"
      }
    }
  }
}
node {
  name: "LSTM_Video_1/rnn/concat_2/axis"
  op: "Const"
  attr {
    key: "dtype"
    value {
      type: DT_INT32
    }
  }
  attr {
    key: "value"
    value {
      tensor {
        dtype: DT_INT32
        tensor_shape {
        }
        int_val: 0
      }
    }
  }
}
node {
  name: "LSTM_Video_1/rnn/concat_2"
  op: "ConcatV2"
  input: "LSTM_Video_1/rnn/concat_2/values_0"
  input: "LSTM_Video_1/rnn/range_1"
  input: "LSTM_Video_1/rnn/concat_2/axis"
  attr {
    key: "N"
    value {
      i: 2
    }
  }
  attr {
    key: "T"
    value {
      type: DT_INT32
    }
  }
  attr {
    key: "Tidx"
    value {
      type: DT_INT32
    }
  }
}
node {
  name: "LSTM_Video_1/rnn/transpose_1"
  op: "Transpose"
  input: "LSTM_Video_1/rnn/TensorArrayV2Stack/TensorListStack"
  input: "LSTM_Video_1/rnn/concat_2"
  attr {
    key: "T"
    value {
      type: DT_FLOAT
    }
  }
  attr {
    key: "Tperm"
    value {
      type: DT_INT32
    }
  }
}
node {
  name: "zeros_1/shape_as_tensor"
  op: "Const"
  attr {
    key: "dtype"
    value {
      type: DT_INT32
    }
  }
  attr {
    key: "value"
    value {
      tensor {
        dtype: DT_INT32
        tensor_shape {
          dim {
            size: 3
          }
        }
        tensor_content: "\001\000\000\000P\000\000\000\364\001\000\000"
      }
    }
  }
}
node {
  name: "zeros_1/Const"
  op: "Const"
  attr {
    key: "dtype"
    value {
      type: DT_FLOAT
    }
  }
  attr {
    key: "value"
    value {
      tensor {
        dtype: DT_FLOAT
        tensor_shape {
        }
        float_val: 0.0
      }
    }
  }
}
node {
  name: "zeros_1"
  op: "Fill"
  input: "zeros_1/shape_as_tensor"
  input: "zeros_1/Const"
  attr {
    key: "T"
    value {
      type: DT_FLOAT
    }
  }
  attr {
    key: "index_type"
    value {
      type: DT_INT32
    }
  }
}
node {
  name: "strided_slice/stack"
  op: "Const"
  attr {
    key: "dtype"
    value {
      type: DT_INT32
    }
  }
  attr {
    key: "value"
    value {
      tensor {
        dtype: DT_INT32
        tensor_shape {
          dim {
            size: 2
          }
        }
        tensor_content: "\000\000\000\000\000\000\000\000"
      }
    }
  }
}
node {
  name: "strided_slice/stack_1"
  op: "Const"
  attr {
    key: "dtype"
    value {
      type: DT_INT32
    }
  }
  attr {
    key: "value"
    value {
      tensor {
        dtype: DT_INT32
        tensor_shape {
          dim {
            size: 2
          }
        }
        tensor_content: "\000\000\000\000O\000\000\000"
      }
    }
  }
}
node {
  name: "strided_slice/stack_2"
  op: "Const"
  attr {
    key: "dtype"
    value {
      type: DT_INT32
    }
  }
  attr {
    key: "value"
    value {
      tensor {
        dtype: DT_INT32
        tensor_shape {
          dim {
            size: 2
          }
        }
        tensor_content: "\001\000\000\000\001\000\000\000"
      }
    }
  }
}
node {
  name: "strided_slice"
  op: "StridedSlice"
  input: "GT_Caption"
  input: "strided_slice/stack"
  input: "strided_slice/stack_1"
  input: "strided_slice/stack_2"
  attr {
    key: "Index"
    value {
      type: DT_INT32
    }
  }
  attr {
    key: "T"
    value {
      type: DT_INT32
    }
  }
  attr {
    key: "begin_mask"
    value {
      i: 1
    }
  }
  attr {
    key: "ellipsis_mask"
    value {
      i: 0
    }
  }
  attr {
    key: "end_mask"
    value {
      i: 1
    }
  }
  attr {
    key: "new_axis_mask"
    value {
      i: 0
    }
  }
  attr {
    key: "shrink_axis_mask"
    value {
      i: 0
    }
  }
}
node {
  name: "embedding_lookup"
  op: "ResourceGather"
  input: "Word_Vectors/Word_embedding"
  input: "strided_slice"
  attr {
    key: "Tindices"
    value {
      type: DT_INT32
    }
  }
  attr {
    key: "_class"
    value {
      list {
        s: "loc:@Word_Vectors/Word_embedding"
      }
    }
  }
  attr {
    key: "batch_dims"
    value {
      i: 0
    }
  }
  attr {
    key: "dtype"
    value {
      type: DT_FLOAT
    }
  }
  attr {
    key: "validate_indices"
    value {
      b: true
    }
  }
}
node {
  name: "embedding_lookup/Identity"
  op: "Identity"
  input: "embedding_lookup"
  attr {
    key: "T"
    value {
      type: DT_FLOAT
    }
  }
  attr {
    key: "_class"
    value {
      list {
        s: "loc:@Word_Vectors/Word_embedding"
      }
    }
  }
}
node {
  name: "embedding_lookup/Identity_1"
  op: "Identity"
  input: "embedding_lookup/Identity"
  attr {
    key: "T"
    value {
      type: DT_FLOAT
    }
  }
}
node {
  name: "sub_1/x"
  op: "Const"
  attr {
    key: "dtype"
    value {
      type: DT_FLOAT
    }
  }
  attr {
    key: "value"
    value {
      tensor {
        dtype: DT_FLOAT
        tensor_shape {
        }
        float_val: 1.0
      }
    }
  }
}
node {
  name: "sub_1"
  op: "Sub"
  input: "sub_1/x"
  input: "Dropout_Keep_Probability"
  attr {
    key: "T"
    value {
      type: DT_FLOAT
    }
  }
}
node {
  name: "dropout_1/Const"
  op: "Const"
  attr {
    key: "dtype"
    value {
      type: DT_FLOAT
    }
  }
  attr {
    key: "value"
    value {
      tensor {
        dtype: DT_FLOAT
        tensor_shape {
        }
        float_val: 1.0
      }
    }
  }
}
node {
  name: "dropout_1/Sub"
  op: "Sub"
  input: "dropout_1/Const"
  input: "sub_1"
  attr {
    key: "T"
    value {
      type: DT_FLOAT
    }
  }
}
node {
  name: "dropout_1/RealDiv"
  op: "RealDiv"
  input: "embedding_lookup/Identity_1"
  input: "dropout_1/Sub"
  attr {
    key: "T"
    value {
      type: DT_FLOAT
    }
  }
}
node {
  name: "dropout_1/Shape"
  op: "Const"
  attr {
    key: "dtype"
    value {
      type: DT_INT32
    }
  }
  attr {
    key: "value"
    value {
      tensor {
        dtype: DT_INT32
        tensor_shape {
          dim {
            size: 3
          }
        }
        tensor_content: "\001\000\000\000O\000\000\000\364\001\000\000"
      }
    }
  }
}
node {
  name: "dropout_1/random_uniform/RandomUniform"
  op: "RandomUniform"
  input: "dropout_1/Shape"
  attr {
    key: "T"
    value {
      type: DT_INT32
    }
  }
  attr {
    key: "dtype"
    value {
      type: DT_FLOAT
    }
  }
  attr {
    key: "seed"
    value {
      i: 0
    }
  }
  attr {
    key: "seed2"
    value {
      i: 0
    }
  }
}
node {
  name: "dropout_1/GreaterEqual"
  op: "GreaterEqual"
  input: "dropout_1/random_uniform/RandomUniform"
  input: "sub_1"
  attr {
    key: "T"
    value {
      type: DT_FLOAT
    }
  }
}
node {
  name: "dropout_1/Cast"
  op: "Cast"
  input: "dropout_1/GreaterEqual"
  attr {
    key: "DstT"
    value {
      type: DT_FLOAT
    }
  }
  attr {
    key: "SrcT"
    value {
      type: DT_BOOL
    }
  }
  attr {
    key: "Truncate"
    value {
      b: false
    }
  }
}
node {
  name: "dropout_1/Mul"
  op: "Mul"
  input: "dropout_1/RealDiv"
  input: "dropout_1/Cast"
  attr {
    key: "T"
    value {
      type: DT_FLOAT
    }
  }
}
node {
  name: "concat_1/axis"
  op: "Const"
  attr {
    key: "dtype"
    value {
      type: DT_INT32
    }
  }
  attr {
    key: "value"
    value {
      tensor {
        dtype: DT_INT32
        tensor_shape {
        }
        int_val: 1
      }
    }
  }
}
node {
  name: "concat_1"
  op: "ConcatV2"
  input: "zeros_1"
  input: "dropout_1/Mul"
  input: "concat_1/axis"
  attr {
    key: "N"
    value {
      i: 2
    }
  }
  attr {
    key: "T"
    value {
      type: DT_FLOAT
    }
  }
  attr {
    key: "Tidx"
    value {
      type: DT_INT32
    }
  }
}
node {
  name: "concat_2/axis"
  op: "Const"
  attr {
    key: "dtype"
    value {
      type: DT_INT32
    }
  }
  attr {
    key: "value"
    value {
      tensor {
        dtype: DT_INT32
        tensor_shape {
        }
        int_val: 2
      }
    }
  }
}
node {
  name: "concat_2"
  op: "ConcatV2"
  input: "concat_1"
  input: "LSTM_Video_1/rnn/transpose_1"
  input: "concat_2/axis"
  attr {
    key: "N"
    value {
      i: 2
    }
  }
  attr {
    key: "T"
    value {
      type: DT_FLOAT
    }
  }
  attr {
    key: "Tidx"
    value {
      type: DT_INT32
    }
  }
}
node {
  name: "LSTM_Caption_1/rnn/Rank"
  op: "Const"
  attr {
    key: "dtype"
    value {
      type: DT_INT32
    }
  }
  attr {
    key: "value"
    value {
      tensor {
        dtype: DT_INT32
        tensor_shape {
        }
        int_val: 3
      }
    }
  }
}
node {
  name: "LSTM_Caption_1/rnn/range/start"
  op: "Const"
  attr {
    key: "dtype"
    value {
      type: DT_INT32
    }
  }
  attr {
    key: "value"
    value {
      tensor {
        dtype: DT_INT32
        tensor_shape {
        }
        int_val: 2
      }
    }
  }
}
node {
  name: "LSTM_Caption_1/rnn/range/delta"
  op: "Const"
  attr {
    key: "dtype"
    value {
      type: DT_INT32
    }
  }
  attr {
    key: "value"
    value {
      tensor {
        dtype: DT_INT32
        tensor_shape {
        }
        int_val: 1
      }
    }
  }
}
node {
  name: "LSTM_Caption_1/rnn/range"
  op: "Range"
  input: "LSTM_Caption_1/rnn/range/start"
  input: "LSTM_Caption_1/rnn/Rank"
  input: "LSTM_Caption_1/rnn/range/delta"
  attr {
    key: "Tidx"
    value {
      type: DT_INT32
    }
  }
}
node {
  name: "LSTM_Caption_1/rnn/concat/values_0"
  op: "Const"
  attr {
    key: "dtype"
    value {
      type: DT_INT32
    }
  }
  attr {
    key: "value"
    value {
      tensor {
        dtype: DT_INT32
        tensor_shape {
          dim {
            size: 2
          }
        }
        tensor_content: "\001\000\000\000\000\000\000\000"
      }
    }
  }
}
node {
  name: "LSTM_Caption_1/rnn/concat/axis"
  op: "Const"
  attr {
    key: "dtype"
    value {
      type: DT_INT32
    }
  }
  attr {
    key: "value"
    value {
      tensor {
        dtype: DT_INT32
        tensor_shape {
        }
        int_val: 0
      }
    }
  }
}
node {
  name: "LSTM_Caption_1/rnn/concat"
  op: "ConcatV2"
  input: "LSTM_Caption_1/rnn/concat/values_0"
  input: "LSTM_Caption_1/rnn/range"
  input: "LSTM_Caption_1/rnn/concat/axis"
  attr {
    key: "N"
    value {
      i: 2
    }
  }
  attr {
    key: "T"
    value {
      type: DT_INT32
    }
  }
  attr {
    key: "Tidx"
    value {
      type: DT_INT32
    }
  }
}
node {
  name: "LSTM_Caption_1/rnn/transpose"
  op: "Transpose"
  input: "concat_2"
  input: "LSTM_Caption_1/rnn/concat"
  attr {
    key: "T"
    value {
      type: DT_FLOAT
    }
  }
  attr {
    key: "Tperm"
    value {
      type: DT_INT32
    }
  }
}
node {
  name: "LSTM_Caption_1/rnn/DropoutWrapperZeroState/BasicLSTMCellZeroState/Const"
  op: "Const"
  attr {
    key: "dtype"
    value {
      type: DT_INT32
    }
  }
  attr {
    key: "value"
    value {
      tensor {
        dtype: DT_INT32
        tensor_shape {
          dim {
            size: 1
          }
        }
        int_val: 1
      }
    }
  }
}
node {
  name: "LSTM_Caption_1/rnn/DropoutWrapperZeroState/BasicLSTMCellZeroState/Const_1"
  op: "Const"
  attr {
    key: "dtype"
    value {
      type: DT_INT32
    }
  }
  attr {
    key: "value"
    value {
      tensor {
        dtype: DT_INT32
        tensor_shape {
          dim {
            size: 1
          }
        }
        int_val: 500
      }
    }
  }
}
node {
  name: "LSTM_Caption_1/rnn/DropoutWrapperZeroState/BasicLSTMCellZeroState/concat/axis"
  op: "Const"
  attr {
    key: "dtype"
    value {
      type: DT_INT32
    }
  }
  attr {
    key: "value"
    value {
      tensor {
        dtype: DT_INT32
        tensor_shape {
        }
        int_val: 0
      }
    }
  }
}
node {
  name: "LSTM_Caption_1/rnn/DropoutWrapperZeroState/BasicLSTMCellZeroState/concat"
  op: "ConcatV2"
  input: "LSTM_Caption_1/rnn/DropoutWrapperZeroState/BasicLSTMCellZeroState/Const"
  input: "LSTM_Caption_1/rnn/DropoutWrapperZeroState/BasicLSTMCellZeroState/Const_1"
  input: "LSTM_Caption_1/rnn/DropoutWrapperZeroState/BasicLSTMCellZeroState/concat/axis"
  attr {
    key: "N"
    value {
      i: 2
    }
  }
  attr {
    key: "T"
    value {
      type: DT_INT32
    }
  }
  attr {
    key: "Tidx"
    value {
      type: DT_INT32
    }
  }
}
node {
  name: "LSTM_Caption_1/rnn/DropoutWrapperZeroState/BasicLSTMCellZeroState/zeros/Const"
  op: "Const"
  attr {
    key: "dtype"
    value {
      type: DT_FLOAT
    }
  }
  attr {
    key: "value"
    value {
      tensor {
        dtype: DT_FLOAT
        tensor_shape {
        }
        float_val: 0.0
      }
    }
  }
}
node {
  name: "LSTM_Caption_1/rnn/DropoutWrapperZeroState/BasicLSTMCellZeroState/zeros"
  op: "Fill"
  input: "LSTM_Caption_1/rnn/DropoutWrapperZeroState/BasicLSTMCellZeroState/concat"
  input: "LSTM_Caption_1/rnn/DropoutWrapperZeroState/BasicLSTMCellZeroState/zeros/Const"
  attr {
    key: "T"
    value {
      type: DT_FLOAT
    }
  }
  attr {
    key: "index_type"
    value {
      type: DT_INT32
    }
  }
}
node {
  name: "LSTM_Caption_1/rnn/DropoutWrapperZeroState/BasicLSTMCellZeroState/Const_2"
  op: "Const"
  attr {
    key: "dtype"
    value {
      type: DT_INT32
    }
  }
  attr {
    key: "value"
    value {
      tensor {
        dtype: DT_INT32
        tensor_shape {
          dim {
            size: 1
          }
        }
        int_val: 1
      }
    }
  }
}
node {
  name: "LSTM_Caption_1/rnn/DropoutWrapperZeroState/BasicLSTMCellZeroState/Const_3"
  op: "Const"
  attr {
    key: "dtype"
    value {
      type: DT_INT32
    }
  }
  attr {
    key: "value"
    value {
      tensor {
        dtype: DT_INT32
        tensor_shape {
          dim {
            size: 1
          }
        }
        int_val: 500
      }
    }
  }
}
node {
  name: "LSTM_Caption_1/rnn/DropoutWrapperZeroState/BasicLSTMCellZeroState/Const_4"
  op: "Const"
  attr {
    key: "dtype"
    value {
      type: DT_INT32
    }
  }
  attr {
    key: "value"
    value {
      tensor {
        dtype: DT_INT32
        tensor_shape {
          dim {
            size: 1
          }
        }
        int_val: 1
      }
    }
  }
}
node {
  name: "LSTM_Caption_1/rnn/DropoutWrapperZeroState/BasicLSTMCellZeroState/Const_5"
  op: "Const"
  attr {
    key: "dtype"
    value {
      type: DT_INT32
    }
  }
  attr {
    key: "value"
    value {
      tensor {
        dtype: DT_INT32
        tensor_shape {
          dim {
            size: 1
          }
        }
        int_val: 500
      }
    }
  }
}
node {
  name: "LSTM_Caption_1/rnn/DropoutWrapperZeroState/BasicLSTMCellZeroState/concat_1/axis"
  op: "Const"
  attr {
    key: "dtype"
    value {
      type: DT_INT32
    }
  }
  attr {
    key: "value"
    value {
      tensor {
        dtype: DT_INT32
        tensor_shape {
        }
        int_val: 0
      }
    }
  }
}
node {
  name: "LSTM_Caption_1/rnn/DropoutWrapperZeroState/BasicLSTMCellZeroState/concat_1"
  op: "ConcatV2"
  input: "LSTM_Caption_1/rnn/DropoutWrapperZeroState/BasicLSTMCellZeroState/Const_4"
  input: "LSTM_Caption_1/rnn/DropoutWrapperZeroState/BasicLSTMCellZeroState/Const_5"
  input: "LSTM_Caption_1/rnn/DropoutWrapperZeroState/BasicLSTMCellZeroState/concat_1/axis"
  attr {
    key: "N"
    value {
      i: 2
    }
  }
  attr {
    key: "T"
    value {
      type: DT_INT32
    }
  }
  attr {
    key: "Tidx"
    value {
      type: DT_INT32
    }
  }
}
node {
  name: "LSTM_Caption_1/rnn/DropoutWrapperZeroState/BasicLSTMCellZeroState/zeros_1/Const"
  op: "Const"
  attr {
    key: "dtype"
    value {
      type: DT_FLOAT
    }
  }
  attr {
    key: "value"
    value {
      tensor {
        dtype: DT_FLOAT
        tensor_shape {
        }
        float_val: 0.0
      }
    }
  }
}
node {
  name: "LSTM_Caption_1/rnn/DropoutWrapperZeroState/BasicLSTMCellZeroState/zeros_1"
  op: "Fill"
  input: "LSTM_Caption_1/rnn/DropoutWrapperZeroState/BasicLSTMCellZeroState/concat_1"
  input: "LSTM_Caption_1/rnn/DropoutWrapperZeroState/BasicLSTMCellZeroState/zeros_1/Const"
  attr {
    key: "T"
    value {
      type: DT_FLOAT
    }
  }
  attr {
    key: "index_type"
    value {
      type: DT_INT32
    }
  }
}
node {
  name: "LSTM_Caption_1/rnn/DropoutWrapperZeroState/BasicLSTMCellZeroState/Const_6"
  op: "Const"
  attr {
    key: "dtype"
    value {
      type: DT_INT32
    }
  }
  attr {
    key: "value"
    value {
      tensor {
        dtype: DT_INT32
        tensor_shape {
          dim {
            size: 1
          }
        }
        int_val: 1
      }
    }
  }
}
node {
  name: "LSTM_Caption_1/rnn/DropoutWrapperZeroState/BasicLSTMCellZeroState/Const_7"
  op: "Const"
  attr {
    key: "dtype"
    value {
      type: DT_INT32
    }
  }
  attr {
    key: "value"
    value {
      tensor {
        dtype: DT_INT32
        tensor_shape {
          dim {
            size: 1
          }
        }
        int_val: 500
      }
    }
  }
}
node {
  name: "LSTM_Caption_1/rnn/Shape"
  op: "Const"
  attr {
    key: "dtype"
    value {
      type: DT_INT32
    }
  }
  attr {
    key: "value"
    value {
      tensor {
        dtype: DT_INT32
        tensor_shape {
          dim {
            size: 3
          }
        }
        tensor_content: "\237\000\000\000\001\000\000\000\350\003\000\000"
      }
    }
  }
}
node {
  name: "LSTM_Caption_1/rnn/strided_slice/stack"
  op: "Const"
  attr {
    key: "dtype"
    value {
      type: DT_INT32
    }
  }
  attr {
    key: "value"
    value {
      tensor {
        dtype: DT_INT32
        tensor_shape {
          dim {
            size: 1
          }
        }
        int_val: 0
      }
    }
  }
}
node {
  name: "LSTM_Caption_1/rnn/strided_slice/stack_1"
  op: "Const"
  attr {
    key: "dtype"
    value {
      type: DT_INT32
    }
  }
  attr {
    key: "value"
    value {
      tensor {
        dtype: DT_INT32
        tensor_shape {
          dim {
            size: 1
          }
        }
        int_val: 1
      }
    }
  }
}
node {
  name: "LSTM_Caption_1/rnn/strided_slice/stack_2"
  op: "Const"
  attr {
    key: "dtype"
    value {
      type: DT_INT32
    }
  }
  attr {
    key: "value"
    value {
      tensor {
        dtype: DT_INT32
        tensor_shape {
          dim {
            size: 1
          }
        }
        int_val: 1
      }
    }
  }
}
node {
  name: "LSTM_Caption_1/rnn/strided_slice"
  op: "StridedSlice"
  input: "LSTM_Caption_1/rnn/Shape"
  input: "LSTM_Caption_1/rnn/strided_slice/stack"
  input: "LSTM_Caption_1/rnn/strided_slice/stack_1"
  input: "LSTM_Caption_1/rnn/strided_slice/stack_2"
  attr {
    key: "Index"
    value {
      type: DT_INT32
    }
  }
  attr {
    key: "T"
    value {
      type: DT_INT32
    }
  }
  attr {
    key: "begin_mask"
    value {
      i: 0
    }
  }
  attr {
    key: "ellipsis_mask"
    value {
      i: 0
    }
  }
  attr {
    key: "end_mask"
    value {
      i: 0
    }
  }
  attr {
    key: "new_axis_mask"
    value {
      i: 0
    }
  }
  attr {
    key: "shrink_axis_mask"
    value {
      i: 1
    }
  }
}
node {
  name: "LSTM_Caption_1/rnn/Const"
  op: "Const"
  attr {
    key: "dtype"
    value {
      type: DT_INT32
    }
  }
  attr {
    key: "value"
    value {
      tensor {
        dtype: DT_INT32
        tensor_shape {
          dim {
            size: 1
          }
        }
        int_val: 1
      }
    }
  }
}
node {
  name: "LSTM_Caption_1/rnn/Const_1"
  op: "Const"
  attr {
    key: "dtype"
    value {
      type: DT_INT32
    }
  }
  attr {
    key: "value"
    value {
      tensor {
        dtype: DT_INT32
        tensor_shape {
          dim {
            size: 1
          }
        }
        int_val: 500
      }
    }
  }
}
node {
  name: "LSTM_Caption_1/rnn/concat_1/axis"
  op: "Const"
  attr {
    key: "dtype"
    value {
      type: DT_INT32
    }
  }
  attr {
    key: "value"
    value {
      tensor {
        dtype: DT_INT32
        tensor_shape {
        }
        int_val: 0
      }
    }
  }
}
node {
  name: "LSTM_Caption_1/rnn/concat_1"
  op: "ConcatV2"
  input: "LSTM_Caption_1/rnn/Const"
  input: "LSTM_Caption_1/rnn/Const_1"
  input: "LSTM_Caption_1/rnn/concat_1/axis"
  attr {
    key: "N"
    value {
      i: 2
    }
  }
  attr {
    key: "T"
    value {
      type: DT_INT32
    }
  }
  attr {
    key: "Tidx"
    value {
      type: DT_INT32
    }
  }
}
node {
  name: "LSTM_Caption_1/rnn/zeros/Const"
  op: "Const"
  attr {
    key: "dtype"
    value {
      type: DT_FLOAT
    }
  }
  attr {
    key: "value"
    value {
      tensor {
        dtype: DT_FLOAT
        tensor_shape {
        }
        float_val: 0.0
      }
    }
  }
}
node {
  name: "LSTM_Caption_1/rnn/zeros"
  op: "Fill"
  input: "LSTM_Caption_1/rnn/concat_1"
  input: "LSTM_Caption_1/rnn/zeros/Const"
  attr {
    key: "T"
    value {
      type: DT_FLOAT
    }
  }
  attr {
    key: "index_type"
    value {
      type: DT_INT32
    }
  }
}
node {
  name: "LSTM_Caption_1/rnn/time"
  op: "Const"
  attr {
    key: "dtype"
    value {
      type: DT_INT32
    }
  }
  attr {
    key: "value"
    value {
      tensor {
        dtype: DT_INT32
        tensor_shape {
        }
        int_val: 0
      }
    }
  }
}
node {
  name: "LSTM_Caption_1/rnn/TensorArrayV2/element_shape"
  op: "Const"
  attr {
    key: "dtype"
    value {
      type: DT_INT32
    }
  }
  attr {
    key: "value"
    value {
      tensor {
        dtype: DT_INT32
        tensor_shape {
          dim {
            size: 2
          }
        }
        tensor_content: "\001\000\000\000\364\001\000\000"
      }
    }
  }
}
node {
  name: "LSTM_Caption_1/rnn/TensorArrayV2"
  op: "TensorListReserve"
  input: "LSTM_Caption_1/rnn/TensorArrayV2/element_shape"
  input: "LSTM_Caption_1/rnn/strided_slice"
  attr {
    key: "element_dtype"
    value {
      type: DT_FLOAT
    }
  }
  attr {
    key: "shape_type"
    value {
      type: DT_INT32
    }
  }
  experimental_type {
    type_id: TFT_PRODUCT
    args {
      type_id: TFT_ARRAY
      args {
        type_id: TFT_TENSOR
        args {
          type_id: TFT_FLOAT
        }
      }
    }
  }
}
node {
  name: "LSTM_Caption_1/rnn/TensorArrayV2_1/element_shape"
  op: "Const"
  attr {
    key: "dtype"
    value {
      type: DT_INT32
    }
  }
  attr {
    key: "value"
    value {
      tensor {
        dtype: DT_INT32
        tensor_shape {
          dim {
            size: 2
          }
        }
        tensor_content: "\001\000\000\000\350\003\000\000"
      }
    }
  }
}
node {
  name: "LSTM_Caption_1/rnn/TensorArrayV2_1"
  op: "TensorListReserve"
  input: "LSTM_Caption_1/rnn/TensorArrayV2_1/element_shape"
  input: "LSTM_Caption_1/rnn/strided_slice"
  attr {
    key: "element_dtype"
    value {
      type: DT_FLOAT
    }
  }
  attr {
    key: "shape_type"
    value {
      type: DT_INT32
    }
  }
  experimental_type {
    type_id: TFT_PRODUCT
    args {
      type_id: TFT_ARRAY
      args {
        type_id: TFT_TENSOR
        args {
          type_id: TFT_FLOAT
        }
      }
    }
  }
}
node {
  name: "LSTM_Caption_1/rnn/TensorArrayUnstack/TensorListFromTensor/element_shape"
  op: "Const"
  attr {
    key: "dtype"
    value {
      type: DT_INT32
    }
  }
  attr {
    key: "value"
    value {
      tensor {
        dtype: DT_INT32
        tensor_shape {
          dim {
            size: 2
          }
        }
        tensor_content: "\001\000\000\000\350\003\000\000"
      }
    }
  }
}
node {
  name: "LSTM_Caption_1/rnn/TensorArrayUnstack/TensorListFromTensor"
  op: "TensorListFromTensor"
  input: "LSTM_Caption_1/rnn/transpose"
  input: "LSTM_Caption_1/rnn/TensorArrayUnstack/TensorListFromTensor/element_shape"
  attr {
    key: "element_dtype"
    value {
      type: DT_FLOAT
    }
  }
  attr {
    key: "shape_type"
    value {
      type: DT_INT32
    }
  }
  experimental_type {
    type_id: TFT_PRODUCT
    args {
      type_id: TFT_ARRAY
      args {
        type_id: TFT_TENSOR
        args {
          type_id: TFT_FLOAT
        }
      }
    }
  }
}
node {
  name: "LSTM_Caption_1/rnn/Maximum/x"
  op: "Const"
  attr {
    key: "dtype"
    value {
      type: DT_INT32
    }
  }
  attr {
    key: "value"
    value {
      tensor {
        dtype: DT_INT32
        tensor_shape {
        }
        int_val: 1
      }
    }
  }
}
node {
  name: "LSTM_Caption_1/rnn/Maximum"
  op: "Maximum"
  input: "LSTM_Caption_1/rnn/Maximum/x"
  input: "LSTM_Caption_1/rnn/strided_slice"
  attr {
    key: "T"
    value {
      type: DT_INT32
    }
  }
}
node {
  name: "LSTM_Caption_1/rnn/Minimum"
  op: "Minimum"
  input: "LSTM_Caption_1/rnn/strided_slice"
  input: "LSTM_Caption_1/rnn/Maximum"
  attr {
    key: "T"
    value {
      type: DT_INT32
    }
  }
}
node {
  name: "LSTM_Caption_1/rnn/while/loop_counter"
  op: "Const"
  attr {
    key: "dtype"
    value {
      type: DT_INT32
    }
  }
  attr {
    key: "value"
    value {
      tensor {
        dtype: DT_INT32
        tensor_shape {
        }
        int_val: 0
      }
    }
  }
}
node {
  name: "LSTM_Caption/rnn/basic_lstm_cell/kernel/Initializer/random_uniform/shape"
  op: "Const"
  attr {
    key: "_class"
    value {
      list {
        s: "loc:@LSTM_Caption/rnn/basic_lstm_cell/kernel"
      }
    }
  }
  attr {
    key: "dtype"
    value {
      type: DT_INT32
    }
  }
  attr {
    key: "value"
    value {
      tensor {
        dtype: DT_INT32
        tensor_shape {
          dim {
            size: 2
          }
        }
        tensor_content: "\334\005\000\000\320\007\000\000"
      }
    }
  }
}
node {
  name: "LSTM_Caption/rnn/basic_lstm_cell/kernel/Initializer/random_uniform/min"
  op: "Const"
  attr {
    key: "_class"
    value {
      list {
        s: "loc:@LSTM_Caption/rnn/basic_lstm_cell/kernel"
      }
    }
  }
  attr {
    key: "dtype"
    value {
      type: DT_FLOAT
    }
  }
  attr {
    key: "value"
    value {
      tensor {
        dtype: DT_FLOAT
        tensor_shape {
        }
        float_val: -0.041403934359550476
      }
    }
  }
}
node {
  name: "LSTM_Caption/rnn/basic_lstm_cell/kernel/Initializer/random_uniform/max"
  op: "Const"
  attr {
    key: "_class"
    value {
      list {
        s: "loc:@LSTM_Caption/rnn/basic_lstm_cell/kernel"
      }
    }
  }
  attr {
    key: "dtype"
    value {
      type: DT_FLOAT
    }
  }
  attr {
    key: "value"
    value {
      tensor {
        dtype: DT_FLOAT
        tensor_shape {
        }
        float_val: 0.041403934359550476
      }
    }
  }
}
node {
  name: "LSTM_Caption/rnn/basic_lstm_cell/kernel/Initializer/random_uniform/RandomUniform"
  op: "RandomUniform"
  input: "LSTM_Caption/rnn/basic_lstm_cell/kernel/Initializer/random_uniform/shape"
  attr {
    key: "T"
    value {
      type: DT_INT32
    }
  }
  attr {
    key: "_class"
    value {
      list {
        s: "loc:@LSTM_Caption/rnn/basic_lstm_cell/kernel"
      }
    }
  }
  attr {
    key: "dtype"
    value {
      type: DT_FLOAT
    }
  }
  attr {
    key: "seed"
    value {
      i: 0
    }
  }
  attr {
    key: "seed2"
    value {
      i: 0
    }
  }
}
node {
  name: "LSTM_Caption/rnn/basic_lstm_cell/kernel/Initializer/random_uniform/sub"
  op: "Sub"
  input: "LSTM_Caption/rnn/basic_lstm_cell/kernel/Initializer/random_uniform/max"
  input: "LSTM_Caption/rnn/basic_lstm_cell/kernel/Initializer/random_uniform/min"
  attr {
    key: "T"
    value {
      type: DT_FLOAT
    }
  }
  attr {
    key: "_class"
    value {
      list {
        s: "loc:@LSTM_Caption/rnn/basic_lstm_cell/kernel"
      }
    }
  }
}
node {
  name: "LSTM_Caption/rnn/basic_lstm_cell/kernel/Initializer/random_uniform/mul"
  op: "Mul"
  input: "LSTM_Caption/rnn/basic_lstm_cell/kernel/Initializer/random_uniform/RandomUniform"
  input: "LSTM_Caption/rnn/basic_lstm_cell/kernel/Initializer/random_uniform/sub"
  attr {
    key: "T"
    value {
      type: DT_FLOAT
    }
  }
  attr {
    key: "_class"
    value {
      list {
        s: "loc:@LSTM_Caption/rnn/basic_lstm_cell/kernel"
      }
    }
  }
}
node {
  name: "LSTM_Caption/rnn/basic_lstm_cell/kernel/Initializer/random_uniform"
  op: "AddV2"
  input: "LSTM_Caption/rnn/basic_lstm_cell/kernel/Initializer/random_uniform/mul"
  input: "LSTM_Caption/rnn/basic_lstm_cell/kernel/Initializer/random_uniform/min"
  attr {
    key: "T"
    value {
      type: DT_FLOAT
    }
  }
  attr {
    key: "_class"
    value {
      list {
        s: "loc:@LSTM_Caption/rnn/basic_lstm_cell/kernel"
      }
    }
  }
}
node {
  name: "LSTM_Caption/rnn/basic_lstm_cell/kernel"
  op: "VarHandleOp"
  attr {
    key: "_class"
    value {
      list {
        s: "loc:@LSTM_Caption/rnn/basic_lstm_cell/kernel"
      }
    }
  }
  attr {
    key: "allowed_devices"
    value {
      list {
      }
    }
  }
  attr {
    key: "container"
    value {
      s: ""
    }
  }
  attr {
    key: "dtype"
    value {
      type: DT_FLOAT
    }
  }
  attr {
    key: "shape"
    value {
      shape {
        dim {
          size: 1500
        }
        dim {
          size: 2000
        }
      }
    }
  }
  attr {
    key: "shared_name"
    value {
      s: "LSTM_Caption/rnn/basic_lstm_cell/kernel"
    }
  }
}
node {
  name: "LSTM_Caption/rnn/basic_lstm_cell/kernel/IsInitialized/VarIsInitializedOp"
  op: "VarIsInitializedOp"
  input: "LSTM_Caption/rnn/basic_lstm_cell/kernel"
}
node {
  name: "LSTM_Caption/rnn/basic_lstm_cell/kernel/Assign"
  op: "AssignVariableOp"
  input: "LSTM_Caption/rnn/basic_lstm_cell/kernel"
  input: "LSTM_Caption/rnn/basic_lstm_cell/kernel/Initializer/random_uniform"
  attr {
    key: "dtype"
    value {
      type: DT_FLOAT
    }
  }
  attr {
    key: "validate_shape"
    value {
      b: false
    }
  }
}
node {
  name: "LSTM_Caption/rnn/basic_lstm_cell/kernel/Read/ReadVariableOp"
  op: "ReadVariableOp"
  input: "LSTM_Caption/rnn/basic_lstm_cell/kernel"
  attr {
    key: "dtype"
    value {
      type: DT_FLOAT
    }
  }
}
node {
  name: "LSTM_Caption/rnn/basic_lstm_cell/kernel/Read/Identity"
  op: "Identity"
  input: "LSTM_Caption/rnn/basic_lstm_cell/kernel/Read/ReadVariableOp"
  attr {
    key: "T"
    value {
      type: DT_FLOAT
    }
  }
}
node {
  name: "LSTM_Caption/rnn/basic_lstm_cell/bias/Initializer/zeros/shape_as_tensor"
  op: "Const"
  attr {
    key: "_class"
    value {
      list {
        s: "loc:@LSTM_Caption/rnn/basic_lstm_cell/bias"
      }
    }
  }
  attr {
    key: "dtype"
    value {
      type: DT_INT32
    }
  }
  attr {
    key: "value"
    value {
      tensor {
        dtype: DT_INT32
        tensor_shape {
          dim {
            size: 1
          }
        }
        int_val: 2000
      }
    }
  }
}
node {
  name: "LSTM_Caption/rnn/basic_lstm_cell/bias/Initializer/zeros/Const"
  op: "Const"
  attr {
    key: "_class"
    value {
      list {
        s: "loc:@LSTM_Caption/rnn/basic_lstm_cell/bias"
      }
    }
  }
  attr {
    key: "dtype"
    value {
      type: DT_FLOAT
    }
  }
  attr {
    key: "value"
    value {
      tensor {
        dtype: DT_FLOAT
        tensor_shape {
        }
        float_val: 0.0
      }
    }
  }
}
node {
  name: "LSTM_Caption/rnn/basic_lstm_cell/bias/Initializer/zeros"
  op: "Fill"
  input: "LSTM_Caption/rnn/basic_lstm_cell/bias/Initializer/zeros/shape_as_tensor"
  input: "LSTM_Caption/rnn/basic_lstm_cell/bias/Initializer/zeros/Const"
  attr {
    key: "T"
    value {
      type: DT_FLOAT
    }
  }
  attr {
    key: "_class"
    value {
      list {
        s: "loc:@LSTM_Caption/rnn/basic_lstm_cell/bias"
      }
    }
  }
  attr {
    key: "index_type"
    value {
      type: DT_INT32
    }
  }
}
node {
  name: "LSTM_Caption/rnn/basic_lstm_cell/bias"
  op: "VarHandleOp"
  attr {
    key: "_class"
    value {
      list {
        s: "loc:@LSTM_Caption/rnn/basic_lstm_cell/bias"
      }
    }
  }
  attr {
    key: "allowed_devices"
    value {
      list {
      }
    }
  }
  attr {
    key: "container"
    value {
      s: ""
    }
  }
  attr {
    key: "dtype"
    value {
      type: DT_FLOAT
    }
  }
  attr {
    key: "shape"
    value {
      shape {
        dim {
          size: 2000
        }
      }
    }
  }
  attr {
    key: "shared_name"
    value {
      s: "LSTM_Caption/rnn/basic_lstm_cell/bias"
    }
  }
}
node {
  name: "LSTM_Caption/rnn/basic_lstm_cell/bias/IsInitialized/VarIsInitializedOp"
  op: "VarIsInitializedOp"
  input: "LSTM_Caption/rnn/basic_lstm_cell/bias"
}
node {
  name: "LSTM_Caption/rnn/basic_lstm_cell/bias/Assign"
  op: "AssignVariableOp"
  input: "LSTM_Caption/rnn/basic_lstm_cell/bias"
  input: "LSTM_Caption/rnn/basic_lstm_cell/bias/Initializer/zeros"
  attr {
    key: "dtype"
    value {
      type: DT_FLOAT
    }
  }
  attr {
    key: "validate_shape"
    value {
      b: false
    }
  }
}
node {
  name: "LSTM_Caption/rnn/basic_lstm_cell/bias/Read/ReadVariableOp"
  op: "ReadVariableOp"
  input: "LSTM_Caption/rnn/basic_lstm_cell/bias"
  attr {
    key: "dtype"
    value {
      type: DT_FLOAT
    }
  }
}
node {
  name: "LSTM_Caption/rnn/basic_lstm_cell/bias/Read/Identity"
  op: "Identity"
  input: "LSTM_Caption/rnn/basic_lstm_cell/bias/Read/ReadVariableOp"
  attr {
    key: "T"
    value {
      type: DT_FLOAT
    }
  }
}
node {
  name: "LSTM_Caption_1/rnn/while"
  op: "While"
  input: "LSTM_Caption_1/rnn/while/loop_counter"
  input: "LSTM_Caption_1/rnn/strided_slice"
  input: "LSTM_Caption_1/rnn/time"
  input: "LSTM_Caption_1/rnn/TensorArrayV2"
  input: "LSTM_Caption_1/rnn/DropoutWrapperZeroState/BasicLSTMCellZeroState/zeros"
  input: "LSTM_Caption_1/rnn/DropoutWrapperZeroState/BasicLSTMCellZeroState/zeros_1"
  input: "LSTM_Caption_1/rnn/Minimum"
  input: "LSTM_Caption_1/rnn/TensorArrayUnstack/TensorListFromTensor"
  input: "LSTM_Caption/rnn/basic_lstm_cell/kernel/Read/Identity"
  input: "LSTM_Caption/rnn/basic_lstm_cell/bias/Read/Identity"
  input: "Dropout_Keep_Probability"
  input: "gradients/LSTM_Caption_1/rnn/while_grad/Placeholder_0/accumulator"
  input: "gradients/LSTM_Caption_1/rnn/while_grad/gradients/dropout/Mul_grad/Shape_0/accumulator"
  input: "gradients/LSTM_Caption_1/rnn/while_grad/gradients/dropout/Mul_grad/Shape_1_0/accumulator"
  input: "gradients/LSTM_Caption_1/rnn/while_grad/dropout/Cast_0/accumulator"
  input: "gradients/LSTM_Caption_1/rnn/while_grad/dropout/RealDiv_0/accumulator"
  input: "gradients/LSTM_Caption_1/rnn/while_grad/gradients/dropout/RealDiv_grad/Shape_1_0/accumulator"
  input: "gradients/LSTM_Caption_1/rnn/while_grad/dropout/Sub_0/accumulator"
  input: "gradients/LSTM_Caption_1/rnn/while_grad/basic_lstm_cell/Mul_2_0/accumulator"
  input: "gradients/LSTM_Caption_1/rnn/while_grad/basic_lstm_cell/Sigmoid_2_0/accumulator"
  input: "gradients/LSTM_Caption_1/rnn/while_grad/basic_lstm_cell/Tanh_1_0/accumulator"
  input: "gradients/LSTM_Caption_1/rnn/while_grad/gradients/dropout/Sub_grad/Shape_0/accumulator"
  input: "gradients/LSTM_Caption_1/rnn/while_grad/gradients/dropout/Sub_grad/Shape_1_0/accumulator"
  input: "gradients/LSTM_Caption_1/rnn/while_grad/gradients/sub_grad/Shape_0/accumulator"
  input: "gradients/LSTM_Caption_1/rnn/while_grad/gradients/sub_grad/Shape_1_0/accumulator"
  input: "gradients/LSTM_Caption_1/rnn/while_grad/basic_lstm_cell/Sigmoid_0/accumulator"
  input: "gradients/LSTM_Caption_1/rnn/while_grad/Placeholder_2_0/accumulator"
  input: "gradients/LSTM_Caption_1/rnn/while_grad/basic_lstm_cell/Tanh_0/accumulator"
  input: "gradients/LSTM_Caption_1/rnn/while_grad/basic_lstm_cell/Sigmoid_1_0/accumulator"
  input: "gradients/LSTM_Caption_1/rnn/while_grad/basic_lstm_cell/concat_0/accumulator"
  input: "gradients/LSTM_Caption_1/rnn/while_grad/gradients/TensorArrayV2Read/TensorListGetItem_grad/TensorListElementShape_0/accumulator"
  input: "gradients/LSTM_Caption_1/rnn/while_grad/gradients/TensorArrayV2Read/TensorListGetItem_grad/TensorListLength_0/accumulator"
  attr {
    key: "T"
    value {
      list {
        type: DT_INT32
        type: DT_INT32
        type: DT_INT32
        type: DT_VARIANT
        type: DT_FLOAT
        type: DT_FLOAT
        type: DT_INT32
        type: DT_VARIANT
        type: DT_FLOAT
        type: DT_FLOAT
        type: DT_FLOAT
        type: DT_VARIANT
        type: DT_VARIANT
        type: DT_VARIANT
        type: DT_VARIANT
        type: DT_VARIANT
        type: DT_VARIANT
        type: DT_VARIANT
        type: DT_VARIANT
        type: DT_VARIANT
        type: DT_VARIANT
        type: DT_VARIANT
        type: DT_VARIANT
        type: DT_VARIANT
        type: DT_VARIANT
        type: DT_VARIANT
        type: DT_VARIANT
        type: DT_VARIANT
        type: DT_VARIANT
        type: DT_VARIANT
        type: DT_VARIANT
        type: DT_VARIANT
      }
    }
  }
  attr {
    key: "_lower_using_switch_merge"
    value {
      b: true
    }
  }
  attr {
    key: "_num_original_outputs"
    value {
      i: 32
    }
  }
  attr {
    key: "_read_only_resource_inputs"
    value {
      list {
      }
    }
  }
  attr {
    key: "_stateful_parallelism"
    value {
      b: false
    }
  }
  attr {
    key: "body"
    value {
      func {
        name: "LSTM_Caption_1_rnn_while_body_3836_rewritten"
      }
    }
  }
  attr {
    key: "cond"
    value {
      func {
        name: "LSTM_Caption_1_rnn_while_cond_3835_rewritten"
      }
    }
  }
  attr {
    key: "output_shapes"
    value {
      list {
        shape {
        }
        shape {
        }
        shape {
        }
        shape {
        }
        shape {
          dim {
            size: 1
          }
          dim {
            size: 500
          }
        }
        shape {
          dim {
            size: 1
          }
          dim {
            size: 500
          }
        }
        shape {
        }
        shape {
        }
        shape {
          dim {
            size: 1500
          }
          dim {
            size: 2000
          }
        }
        shape {
          dim {
            size: 2000
          }
        }
        shape {
          unknown_rank: true
        }
        shape {
        }
        shape {
        }
        shape {
        }
        shape {
        }
        shape {
        }
        shape {
        }
        shape {
        }
        shape {
        }
        shape {
        }
        shape {
        }
        shape {
        }
        shape {
        }
        shape {
        }
        shape {
        }
        shape {
        }
        shape {
        }
        shape {
        }
        shape {
        }
        shape {
        }
        shape {
        }
        shape {
        }
      }
    }
  }
  attr {
    key: "parallel_iterations"
    value {
      i: 32
    }
  }
}
node {
  name: "LSTM_Caption_1/rnn/while/Identity"
  op: "Identity"
  input: "LSTM_Caption_1/rnn/while"
  attr {
    key: "T"
    value {
      type: DT_INT32
    }
  }
}
node {
  name: "LSTM_Caption_1/rnn/while/Identity_1"
  op: "Identity"
  input: "LSTM_Caption_1/rnn/while:1"
  attr {
    key: "T"
    value {
      type: DT_INT32
    }
  }
}
node {
  name: "LSTM_Caption_1/rnn/while/Identity_2"
  op: "Identity"
  input: "LSTM_Caption_1/rnn/while:2"
  attr {
    key: "T"
    value {
      type: DT_INT32
    }
  }
}
node {
  name: "LSTM_Caption_1/rnn/while/Identity_3"
  op: "Identity"
  input: "LSTM_Caption_1/rnn/while:3"
  attr {
    key: "T"
    value {
      type: DT_VARIANT
    }
  }
}
node {
  name: "LSTM_Caption_1/rnn/while/Identity_4"
  op: "Identity"
  input: "LSTM_Caption_1/rnn/while:4"
  attr {
    key: "T"
    value {
      type: DT_FLOAT
    }
  }
}
node {
  name: "LSTM_Caption_1/rnn/while/Identity_5"
  op: "Identity"
  input: "LSTM_Caption_1/rnn/while:5"
  attr {
    key: "T"
    value {
      type: DT_FLOAT
    }
  }
}
node {
  name: "LSTM_Caption_1/rnn/while/Identity_6"
  op: "Identity"
  input: "LSTM_Caption_1/rnn/while:6"
  attr {
    key: "T"
    value {
      type: DT_INT32
    }
  }
}
node {
  name: "LSTM_Caption_1/rnn/while/Identity_7"
  op: "Identity"
  input: "LSTM_Caption_1/rnn/while:7"
  attr {
    key: "T"
    value {
      type: DT_VARIANT
    }
  }
}
node {
  name: "LSTM_Caption_1/rnn/while/Identity_8"
  op: "Identity"
  input: "LSTM_Caption_1/rnn/while:8"
  attr {
    key: "T"
    value {
      type: DT_FLOAT
    }
  }
}
node {
  name: "LSTM_Caption_1/rnn/while/Identity_9"
  op: "Identity"
  input: "LSTM_Caption_1/rnn/while:9"
  attr {
    key: "T"
    value {
      type: DT_FLOAT
    }
  }
}
node {
  name: "LSTM_Caption_1/rnn/while/Identity_10"
  op: "Identity"
  input: "LSTM_Caption_1/rnn/while:10"
  attr {
    key: "T"
    value {
      type: DT_FLOAT
    }
  }
}
node {
  name: "LSTM_Caption_1/rnn/TensorArrayV2Stack/TensorListStack/element_shape"
  op: "Const"
  attr {
    key: "dtype"
    value {
      type: DT_INT32
    }
  }
  attr {
    key: "value"
    value {
      tensor {
        dtype: DT_INT32
        tensor_shape {
          dim {
            size: 2
          }
        }
        tensor_content: "\001\000\000\000\364\001\000\000"
      }
    }
  }
}
node {
  name: "LSTM_Caption_1/rnn/TensorArrayV2Stack/TensorListStack"
  op: "TensorListStack"
  input: "LSTM_Caption_1/rnn/while/Identity_3"
  input: "LSTM_Caption_1/rnn/TensorArrayV2Stack/TensorListStack/element_shape"
  attr {
    key: "element_dtype"
    value {
      type: DT_FLOAT
    }
  }
  attr {
    key: "num_elements"
    value {
      i: -1
    }
  }
}
node {
  name: "LSTM_Caption_1/rnn/Const_2"
  op: "Const"
  attr {
    key: "dtype"
    value {
      type: DT_INT32
    }
  }
  attr {
    key: "value"
    value {
      tensor {
        dtype: DT_INT32
        tensor_shape {
          dim {
            size: 2
          }
        }
        tensor_content: "\237\000\000\000\001\000\000\000"
      }
    }
  }
}
node {
  name: "LSTM_Caption_1/rnn/Const_3"
  op: "Const"
  attr {
    key: "dtype"
    value {
      type: DT_INT32
    }
  }
  attr {
    key: "value"
    value {
      tensor {
        dtype: DT_INT32
        tensor_shape {
          dim {
            size: 1
          }
        }
        int_val: 500
      }
    }
  }
}
node {
  name: "LSTM_Caption_1/rnn/Rank_1"
  op: "Const"
  attr {
    key: "dtype"
    value {
      type: DT_INT32
    }
  }
  attr {
    key: "value"
    value {
      tensor {
        dtype: DT_INT32
        tensor_shape {
        }
        int_val: 3
      }
    }
  }
}
node {
  name: "LSTM_Caption_1/rnn/range_1/start"
  op: "Const"
  attr {
    key: "dtype"
    value {
      type: DT_INT32
    }
  }
  attr {
    key: "value"
    value {
      tensor {
        dtype: DT_INT32
        tensor_shape {
        }
        int_val: 2
      }
    }
  }
}
node {
  name: "LSTM_Caption_1/rnn/range_1/delta"
  op: "Const"
  attr {
    key: "dtype"
    value {
      type: DT_INT32
    }
  }
  attr {
    key: "value"
    value {
      tensor {
        dtype: DT_INT32
        tensor_shape {
        }
        int_val: 1
      }
    }
  }
}
node {
  name: "LSTM_Caption_1/rnn/range_1"
  op: "Range"
  input: "LSTM_Caption_1/rnn/range_1/start"
  input: "LSTM_Caption_1/rnn/Rank_1"
  input: "LSTM_Caption_1/rnn/range_1/delta"
  attr {
    key: "Tidx"
    value {
      type: DT_INT32
    }
  }
}
node {
  name: "LSTM_Caption_1/rnn/concat_2/values_0"
  op: "Const"
  attr {
    key: "dtype"
    value {
      type: DT_INT32
    }
  }
  attr {
    key: "value"
    value {
      tensor {
        dtype: DT_INT32
        tensor_shape {
          dim {
            size: 2
          }
        }
        tensor_content: "\001\000\000\000\000\000\000\000"
      }
    }
  }
}
node {
  name: "LSTM_Caption_1/rnn/concat_2/axis"
  op: "Const"
  attr {
    key: "dtype"
    value {
      type: DT_INT32
    }
  }
  attr {
    key: "value"
    value {
      tensor {
        dtype: DT_INT32
        tensor_shape {
        }
        int_val: 0
      }
    }
  }
}
node {
  name: "LSTM_Caption_1/rnn/concat_2"
  op: "ConcatV2"
  input: "LSTM_Caption_1/rnn/concat_2/values_0"
  input: "LSTM_Caption_1/rnn/range_1"
  input: "LSTM_Caption_1/rnn/concat_2/axis"
  attr {
    key: "N"
    value {
      i: 2
    }
  }
  attr {
    key: "T"
    value {
      type: DT_INT32
    }
  }
  attr {
    key: "Tidx"
    value {
      type: DT_INT32
    }
  }
}
node {
  name: "LSTM_Caption_1/rnn/transpose_1"
  op: "Transpose"
  input: "LSTM_Caption_1/rnn/TensorArrayV2Stack/TensorListStack"
  input: "LSTM_Caption_1/rnn/concat_2"
  attr {
    key: "T"
    value {
      type: DT_FLOAT
    }
  }
  attr {
    key: "Tperm"
    value {
      type: DT_INT32
    }
  }
}
node {
  name: "strided_slice_1/stack"
  op: "Const"
  attr {
    key: "dtype"
    value {
      type: DT_INT32
    }
  }
  attr {
    key: "value"
    value {
      tensor {
        dtype: DT_INT32
        tensor_shape {
          dim {
            size: 3
          }
        }
        tensor_content: "\000\000\000\000P\000\000\000\000\000\000\000"
      }
    }
  }
}
node {
  name: "strided_slice_1/stack_1"
  op: "Const"
  attr {
    key: "dtype"
    value {
      type: DT_INT32
    }
  }
  attr {
    key: "value"
    value {
      tensor {
        dtype: DT_INT32
        tensor_shape {
          dim {
            size: 3
          }
        }
        tensor_content: "\000\000\000\000\000\000\000\000\000\000\000\000"
      }
    }
  }
}
node {
  name: "strided_slice_1/stack_2"
  op: "Const"
  attr {
    key: "dtype"
    value {
      type: DT_INT32
    }
  }
  attr {
    key: "value"
    value {
      tensor {
        dtype: DT_INT32
        tensor_shape {
          dim {
            size: 3
          }
        }
        tensor_content: "\001\000\000\000\001\000\000\000\001\000\000\000"
      }
    }
  }
}
node {
  name: "strided_slice_1"
  op: "StridedSlice"
  input: "LSTM_Caption_1/rnn/transpose_1"
  input: "strided_slice_1/stack"
  input: "strided_slice_1/stack_1"
  input: "strided_slice_1/stack_2"
  attr {
    key: "Index"
    value {
      type: DT_INT32
    }
  }
  attr {
    key: "T"
    value {
      type: DT_FLOAT
    }
  }
  attr {
    key: "begin_mask"
    value {
      i: 5
    }
  }
  attr {
    key: "ellipsis_mask"
    value {
      i: 0
    }
  }
  attr {
    key: "end_mask"
    value {
      i: 7
    }
  }
  attr {
    key: "new_axis_mask"
    value {
      i: 0
    }
  }
  attr {
    key: "shrink_axis_mask"
    value {
      i: 0
    }
  }
}
node {
  name: "Reshape_2/shape"
  op: "Const"
  attr {
    key: "dtype"
    value {
      type: DT_INT32
    }
  }
  attr {
    key: "value"
    value {
      tensor {
        dtype: DT_INT32
        tensor_shape {
          dim {
            size: 2
          }
        }
        tensor_content: "\377\377\377\377\364\001\000\000"
      }
    }
  }
}
node {
  name: "Reshape_2"
  op: "Reshape"
  input: "strided_slice_1"
  input: "Reshape_2/shape"
  attr {
    key: "T"
    value {
      type: DT_FLOAT
    }
  }
  attr {
    key: "Tshape"
    value {
      type: DT_INT32
    }
  }
}
node {
  name: "sub_2/x"
  op: "Const"
  attr {
    key: "dtype"
    value {
      type: DT_FLOAT
    }
  }
  attr {
    key: "value"
    value {
      tensor {
        dtype: DT_FLOAT
        tensor_shape {
        }
        float_val: 1.0
      }
    }
  }
}
node {
  name: "sub_2"
  op: "Sub"
  input: "sub_2/x"
  input: "Dropout_Keep_Probability"
  attr {
    key: "T"
    value {
      type: DT_FLOAT
    }
  }
}
node {
  name: "dropout_2/Const"
  op: "Const"
  attr {
    key: "dtype"
    value {
      type: DT_FLOAT
    }
  }
  attr {
    key: "value"
    value {
      tensor {
        dtype: DT_FLOAT
        tensor_shape {
        }
        float_val: 1.0
      }
    }
  }
}
node {
  name: "dropout_2/Sub"
  op: "Sub"
  input: "dropout_2/Const"
  input: "sub_2"
  attr {
    key: "T"
    value {
      type: DT_FLOAT
    }
  }
}
node {
  name: "dropout_2/RealDiv"
  op: "RealDiv"
  input: "Reshape_2"
  input: "dropout_2/Sub"
  attr {
    key: "T"
    value {
      type: DT_FLOAT
    }
  }
}
node {
  name: "dropout_2/Shape"
  op: "Const"
  attr {
    key: "dtype"
    value {
      type: DT_INT32
    }
  }
  attr {
    key: "value"
    value {
      tensor {
        dtype: DT_INT32
        tensor_shape {
          dim {
            size: 2
          }
        }
        tensor_content: "O\000\000\000\364\001\000\000"
      }
    }
  }
}
node {
  name: "dropout_2/random_uniform/RandomUniform"
  op: "RandomUniform"
  input: "dropout_2/Shape"
  attr {
    key: "T"
    value {
      type: DT_INT32
    }
  }
  attr {
    key: "dtype"
    value {
      type: DT_FLOAT
    }
  }
  attr {
    key: "seed"
    value {
      i: 0
    }
  }
  attr {
    key: "seed2"
    value {
      i: 0
    }
  }
}
node {
  name: "dropout_2/GreaterEqual"
  op: "GreaterEqual"
  input: "dropout_2/random_uniform/RandomUniform"
  input: "sub_2"
  attr {
    key: "T"
    value {
      type: DT_FLOAT
    }
  }
}
node {
  name: "dropout_2/Cast"
  op: "Cast"
  input: "dropout_2/GreaterEqual"
  attr {
    key: "DstT"
    value {
      type: DT_FLOAT
    }
  }
  attr {
    key: "SrcT"
    value {
      type: DT_BOOL
    }
  }
  attr {
    key: "Truncate"
    value {
      b: false
    }
  }
}
node {
  name: "dropout_2/Mul"
  op: "Mul"
  input: "dropout_2/RealDiv"
  input: "dropout_2/Cast"
  attr {
    key: "T"
    value {
      type: DT_FLOAT
    }
  }
}
node {
  name: "xw_plus_b_1/ReadVariableOp"
  op: "ReadVariableOp"
  input: "Hid2Vocab/W_H2vocab"
  attr {
    key: "dtype"
    value {
      type: DT_FLOAT
    }
  }
}
node {
  name: "xw_plus_b_1/ReadVariableOp_1"
  op: "ReadVariableOp"
  input: "Hid2Vocab/b_H2vocab"
  attr {
    key: "dtype"
    value {
      type: DT_FLOAT
    }
  }
}
node {
  name: "xw_plus_b_1/MatMul"
  op: "MatMul"
  input: "dropout_2/Mul"
  input: "xw_plus_b_1/ReadVariableOp"
  attr {
    key: "T"
    value {
      type: DT_FLOAT
    }
  }
  attr {
    key: "transpose_a"
    value {
      b: false
    }
  }
  attr {
    key: "transpose_b"
    value {
      b: false
    }
  }
}
node {
  name: "xw_plus_b_1"
  op: "BiasAdd"
  input: "xw_plus_b_1/MatMul"
  input: "xw_plus_b_1/ReadVariableOp_1"
  attr {
    key: "T"
    value {
      type: DT_FLOAT
    }
  }
  attr {
    key: "data_format"
    value {
      s: "NHWC"
    }
  }
}
node {
  name: "strided_slice_2/stack"
  op: "Const"
  attr {
    key: "dtype"
    value {
      type: DT_INT32
    }
  }
  attr {
    key: "value"
    value {
      tensor {
        dtype: DT_INT32
        tensor_shape {
          dim {
            size: 2
          }
        }
        tensor_content: "\000\000\000\000\001\000\000\000"
      }
    }
  }
}
node {
  name: "strided_slice_2/stack_1"
  op: "Const"
  attr {
    key: "dtype"
    value {
      type: DT_INT32
    }
  }
  attr {
    key: "value"
    value {
      tensor {
        dtype: DT_INT32
        tensor_shape {
          dim {
            size: 2
          }
        }
        tensor_content: "\000\000\000\000\000\000\000\000"
      }
    }
  }
}
node {
  name: "strided_slice_2/stack_2"
  op: "Const"
  attr {
    key: "dtype"
    value {
      type: DT_INT32
    }
  }
  attr {
    key: "value"
    value {
      tensor {
        dtype: DT_INT32
        tensor_shape {
          dim {
            size: 2
          }
        }
        tensor_content: "\001\000\000\000\001\000\000\000"
      }
    }
  }
}
node {
  name: "strided_slice_2"
  op: "StridedSlice"
  input: "GT_Caption"
  input: "strided_slice_2/stack"
  input: "strided_slice_2/stack_1"
  input: "strided_slice_2/stack_2"
  attr {
    key: "Index"
    value {
      type: DT_INT32
    }
  }
  attr {
    key: "T"
    value {
      type: DT_INT32
    }
  }
  attr {
    key: "begin_mask"
    value {
      i: 1
    }
  }
  attr {
    key: "ellipsis_mask"
    value {
      i: 0
    }
  }
  attr {
    key: "end_mask"
    value {
      i: 3
    }
  }
  attr {
    key: "new_axis_mask"
    value {
      i: 0
    }
  }
  attr {
    key: "shrink_axis_mask"
    value {
      i: 0
    }
  }
}
node {
  name: "Reshape_3/shape"
  op: "Const"
  attr {
    key: "dtype"
    value {
      type: DT_INT32
    }
  }
  attr {
    key: "value"
    value {
      tensor {
        dtype: DT_INT32
        tensor_shape {
          dim {
            size: 1
          }
        }
        int_val: -1
      }
    }
  }
}
node {
  name: "Reshape_3"
  op: "Reshape"
  input: "strided_slice_2"
  input: "Reshape_3/shape"
  attr {
    key: "T"
    value {
      type: DT_INT32
    }
  }
  attr {
    key: "Tshape"
    value {
      type: DT_INT32
    }
  }
}
node {
  name: "strided_slice_3/stack"
  op: "Const"
  attr {
    key: "dtype"
    value {
      type: DT_INT32
    }
  }
  attr {
    key: "value"
    value {
      tensor {
        dtype: DT_INT32
        tensor_shape {
          dim {
            size: 2
          }
        }
        tensor_content: "\000\000\000\000\001\000\000\000"
      }
    }
  }
}
node {
  name: "strided_slice_3/stack_1"
  op: "Const"
  attr {
    key: "dtype"
    value {
      type: DT_INT32
    }
  }
  attr {
    key: "value"
    value {
      tensor {
        dtype: DT_INT32
        tensor_shape {
          dim {
            size: 2
          }
        }
        tensor_content: "\000\000\000\000\000\000\000\000"
      }
    }
  }
}
node {
  name: "strided_slice_3/stack_2"
  op: "Const"
  attr {
    key: "dtype"
    value {
      type: DT_INT32
    }
  }
  attr {
    key: "value"
    value {
      tensor {
        dtype: DT_INT32
        tensor_shape {
          dim {
            size: 2
          }
        }
        tensor_content: "\001\000\000\000\001\000\000\000"
      }
    }
  }
}
node {
  name: "strided_slice_3"
  op: "StridedSlice"
  input: "Caption_Mask"
  input: "strided_slice_3/stack"
  input: "strided_slice_3/stack_1"
  input: "strided_slice_3/stack_2"
  attr {
    key: "Index"
    value {
      type: DT_INT32
    }
  }
  attr {
    key: "T"
    value {
      type: DT_FLOAT
    }
  }
  attr {
    key: "begin_mask"
    value {
      i: 1
    }
  }
  attr {
    key: "ellipsis_mask"
    value {
      i: 0
    }
  }
  attr {
    key: "end_mask"
    value {
      i: 3
    }
  }
  attr {
    key: "new_axis_mask"
    value {
      i: 0
    }
  }
  attr {
    key: "shrink_axis_mask"
    value {
      i: 0
    }
  }
}
node {
  name: "Reshape_4/shape"
  op: "Const"
  attr {
    key: "dtype"
    value {
      type: DT_INT32
    }
  }
  attr {
    key: "value"
    value {
      tensor {
        dtype: DT_INT32
        tensor_shape {
          dim {
            size: 1
          }
        }
        int_val: -1
      }
    }
  }
}
node {
  name: "Reshape_4"
  op: "Reshape"
  input: "strided_slice_3"
  input: "Reshape_4/shape"
  attr {
    key: "T"
    value {
      type: DT_FLOAT
    }
  }
  attr {
    key: "Tshape"
    value {
      type: DT_INT32
    }
  }
}
node {
  name: "SparseSoftmaxCrossEntropyWithLogits/Shape"
  op: "Const"
  attr {
    key: "dtype"
    value {
      type: DT_INT32
    }
  }
  attr {
    key: "value"
    value {
      tensor {
        dtype: DT_INT32
        tensor_shape {
          dim {
            size: 1
          }
        }
        int_val: 79
      }
    }
  }
}
node {
  name: "SparseSoftmaxCrossEntropyWithLogits/SparseSoftmaxCrossEntropyWithLogits"
  op: "SparseSoftmaxCrossEntropyWithLogits"
  input: "xw_plus_b_1"
  input: "Reshape_3"
  attr {
    key: "T"
    value {
      type: DT_FLOAT
    }
  }
  attr {
    key: "Tlabels"
    value {
      type: DT_INT32
    }
  }
}
node {
  name: "mul"
  op: "Mul"
  input: "SparseSoftmaxCrossEntropyWithLogits/SparseSoftmaxCrossEntropyWithLogits"
  input: "Reshape_4"
  attr {
    key: "T"
    value {
      type: DT_FLOAT
    }
  }
}
node {
  name: "Const"
  op: "Const"
  attr {
    key: "dtype"
    value {
      type: DT_INT32
    }
  }
  attr {
    key: "value"
    value {
      tensor {
        dtype: DT_INT32
        tensor_shape {
          dim {
            size: 1
          }
        }
        int_val: 0
      }
    }
  }
}
node {
  name: "Sum"
  op: "Sum"
  input: "mul"
  input: "Const"
  attr {
    key: "T"
    value {
      type: DT_FLOAT
    }
  }
  attr {
    key: "Tidx"
    value {
      type: DT_INT32
    }
  }
  attr {
    key: "keep_dims"
    value {
      b: false
    }
  }
}
node {
  name: "Const_1"
  op: "Const"
  attr {
    key: "dtype"
    value {
      type: DT_INT32
    }
  }
  attr {
    key: "value"
    value {
      tensor {
        dtype: DT_INT32
        tensor_shape {
          dim {
            size: 1
          }
        }
        int_val: 0
      }
    }
  }
}
node {
  name: "Sum_1"
  op: "Sum"
  input: "Reshape_4"
  input: "Const_1"
  attr {
    key: "T"
    value {
      type: DT_FLOAT
    }
  }
  attr {
    key: "Tidx"
    value {
      type: DT_INT32
    }
  }
  attr {
    key: "keep_dims"
    value {
      b: false
    }
  }
}
node {
  name: "truediv"
  op: "RealDiv"
  input: "Sum"
  input: "Sum_1"
  attr {
    key: "T"
    value {
      type: DT_FLOAT
    }
  }
}
node {
  name: "gradients/Shape"
  op: "Const"
  attr {
    key: "dtype"
    value {
      type: DT_INT32
    }
  }
  attr {
    key: "value"
    value {
      tensor {
        dtype: DT_INT32
        tensor_shape {
          dim {
          }
        }
      }
    }
  }
}
node {
  name: "gradients/grad_ys_0/Const"
  op: "Const"
  attr {
    key: "dtype"
    value {
      type: DT_FLOAT
    }
  }
  attr {
    key: "value"
    value {
      tensor {
        dtype: DT_FLOAT
        tensor_shape {
        }
        float_val: 1.0
      }
    }
  }
}
node {
  name: "gradients/grad_ys_0"
  op: "Fill"
  input: "gradients/Shape"
  input: "gradients/grad_ys_0/Const"
  attr {
    key: "T"
    value {
      type: DT_FLOAT
    }
  }
  attr {
    key: "index_type"
    value {
      type: DT_INT32
    }
  }
}
node {
  name: "gradients/truediv_grad/Shape"
  op: "Const"
  attr {
    key: "dtype"
    value {
      type: DT_INT32
    }
  }
  attr {
    key: "value"
    value {
      tensor {
        dtype: DT_INT32
        tensor_shape {
          dim {
          }
        }
      }
    }
  }
}
node {
  name: "gradients/truediv_grad/Shape_1"
  op: "Const"
  attr {
    key: "dtype"
    value {
      type: DT_INT32
    }
  }
  attr {
    key: "value"
    value {
      tensor {
        dtype: DT_INT32
        tensor_shape {
          dim {
          }
        }
      }
    }
  }
}
node {
  name: "gradients/truediv_grad/BroadcastGradientArgs"
  op: "BroadcastGradientArgs"
  input: "gradients/truediv_grad/Shape"
  input: "gradients/truediv_grad/Shape_1"
  attr {
    key: "T"
    value {
      type: DT_INT32
    }
  }
}
node {
  name: "gradients/truediv_grad/RealDiv"
  op: "RealDiv"
  input: "gradients/grad_ys_0"
  input: "Sum_1"
  attr {
    key: "T"
    value {
      type: DT_FLOAT
    }
  }
}
node {
  name: "gradients/truediv_grad/Sum"
  op: "Sum"
  input: "gradients/truediv_grad/RealDiv"
  input: "gradients/truediv_grad/BroadcastGradientArgs"
  attr {
    key: "T"
    value {
      type: DT_FLOAT
    }
  }
  attr {
    key: "Tidx"
    value {
      type: DT_INT32
    }
  }
  attr {
    key: "keep_dims"
    value {
      b: false
    }
  }
}
node {
  name: "gradients/truediv_grad/Reshape"
  op: "Reshape"
  input: "gradients/truediv_grad/Sum"
  input: "gradients/truediv_grad/Shape"
  attr {
    key: "T"
    value {
      type: DT_FLOAT
    }
  }
  attr {
    key: "Tshape"
    value {
      type: DT_INT32
    }
  }
}
node {
  name: "gradients/truediv_grad/Neg"
  op: "Neg"
  input: "Sum"
  attr {
    key: "T"
    value {
      type: DT_FLOAT
    }
  }
}
node {
  name: "gradients/truediv_grad/RealDiv_1"
  op: "RealDiv"
  input: "gradients/truediv_grad/Neg"
  input: "Sum_1"
  attr {
    key: "T"
    value {
      type: DT_FLOAT
    }
  }
}
node {
  name: "gradients/truediv_grad/RealDiv_2"
  op: "RealDiv"
  input: "gradients/truediv_grad/RealDiv_1"
  input: "Sum_1"
  attr {
    key: "T"
    value {
      type: DT_FLOAT
    }
  }
}
node {
  name: "gradients/truediv_grad/mul"
  op: "Mul"
  input: "gradients/grad_ys_0"
  input: "gradients/truediv_grad/RealDiv_2"
  attr {
    key: "T"
    value {
      type: DT_FLOAT
    }
  }
}
node {
  name: "gradients/truediv_grad/Sum_1"
  op: "Sum"
  input: "gradients/truediv_grad/mul"
  input: "gradients/truediv_grad/BroadcastGradientArgs:1"
  attr {
    key: "T"
    value {
      type: DT_FLOAT
    }
  }
  attr {
    key: "Tidx"
    value {
      type: DT_INT32
    }
  }
  attr {
    key: "keep_dims"
    value {
      b: false
    }
  }
}
node {
  name: "gradients/truediv_grad/Reshape_1"
  op: "Reshape"
  input: "gradients/truediv_grad/Sum_1"
  input: "gradients/truediv_grad/Shape_1"
  attr {
    key: "T"
    value {
      type: DT_FLOAT
    }
  }
  attr {
    key: "Tshape"
    value {
      type: DT_INT32
    }
  }
}
node {
  name: "gradients/truediv_grad/tuple/group_deps"
  op: "NoOp"
  input: "^gradients/truediv_grad/Reshape"
  input: "^gradients/truediv_grad/Reshape_1"
}
node {
  name: "gradients/truediv_grad/tuple/control_dependency"
  op: "Identity"
  input: "gradients/truediv_grad/Reshape"
  input: "^gradients/truediv_grad/tuple/group_deps"
  attr {
    key: "T"
    value {
      type: DT_FLOAT
    }
  }
  attr {
    key: "_class"
    value {
      list {
        s: "loc:@gradients/truediv_grad/Reshape"
      }
    }
  }
}
node {
  name: "gradients/truediv_grad/tuple/control_dependency_1"
  op: "Identity"
  input: "gradients/truediv_grad/Reshape_1"
  input: "^gradients/truediv_grad/tuple/group_deps"
  attr {
    key: "T"
    value {
      type: DT_FLOAT
    }
  }
  attr {
    key: "_class"
    value {
      list {
        s: "loc:@gradients/truediv_grad/Reshape_1"
      }
    }
  }
}
node {
  name: "gradients/Sum_grad/Reshape/shape"
  op: "Const"
  attr {
    key: "dtype"
    value {
      type: DT_INT32
    }
  }
  attr {
    key: "value"
    value {
      tensor {
        dtype: DT_INT32
        tensor_shape {
          dim {
            size: 1
          }
        }
        int_val: 1
      }
    }
  }
}
node {
  name: "gradients/Sum_grad/Reshape"
  op: "Reshape"
  input: "gradients/truediv_grad/tuple/control_dependency"
  input: "gradients/Sum_grad/Reshape/shape"
  attr {
    key: "T"
    value {
      type: DT_FLOAT
    }
  }
  attr {
    key: "Tshape"
    value {
      type: DT_INT32
    }
  }
}
node {
  name: "gradients/Sum_grad/Const"
  op: "Const"
  attr {
    key: "dtype"
    value {
      type: DT_INT32
    }
  }
  attr {
    key: "value"
    value {
      tensor {
        dtype: DT_INT32
        tensor_shape {
          dim {
            size: 1
          }
        }
        int_val: 79
      }
    }
  }
}
node {
  name: "gradients/Sum_grad/Tile"
  op: "Tile"
  input: "gradients/Sum_grad/Reshape"
  input: "gradients/Sum_grad/Const"
  attr {
    key: "T"
    value {
      type: DT_FLOAT
    }
  }
  attr {
    key: "Tmultiples"
    value {
      type: DT_INT32
    }
  }
}
node {
  name: "gradients/mul_grad/Mul"
  op: "Mul"
  input: "gradients/Sum_grad/Tile"
  input: "Reshape_4"
  attr {
    key: "T"
    value {
      type: DT_FLOAT
    }
  }
}
node {
  name: "gradients/mul_grad/Mul_1"
  op: "Mul"
  input: "gradients/Sum_grad/Tile"
  input: "SparseSoftmaxCrossEntropyWithLogits/SparseSoftmaxCrossEntropyWithLogits"
  attr {
    key: "T"
    value {
      type: DT_FLOAT
    }
  }
}
node {
  name: "gradients/mul_grad/tuple/group_deps"
  op: "NoOp"
  input: "^gradients/mul_grad/Mul"
  input: "^gradients/mul_grad/Mul_1"
}
node {
  name: "gradients/mul_grad/tuple/control_dependency"
  op: "Identity"
  input: "gradients/mul_grad/Mul"
  input: "^gradients/mul_grad/tuple/group_deps"
  attr {
    key: "T"
    value {
      type: DT_FLOAT
    }
  }
  attr {
    key: "_class"
    value {
      list {
        s: "loc:@gradients/mul_grad/Mul"
      }
    }
  }
}
node {
  name: "gradients/mul_grad/tuple/control_dependency_1"
  op: "Identity"
  input: "gradients/mul_grad/Mul_1"
  input: "^gradients/mul_grad/tuple/group_deps"
  attr {
    key: "T"
    value {
      type: DT_FLOAT
    }
  }
  attr {
    key: "_class"
    value {
      list {
        s: "loc:@gradients/mul_grad/Mul_1"
      }
    }
  }
}
node {
  name: "gradients/zeros_like"
  op: "ZerosLike"
  input: "SparseSoftmaxCrossEntropyWithLogits/SparseSoftmaxCrossEntropyWithLogits:1"
  attr {
    key: "T"
    value {
      type: DT_FLOAT
    }
  }
}
node {
  name: "gradients/SparseSoftmaxCrossEntropyWithLogits/SparseSoftmaxCrossEntropyWithLogits_grad/ExpandDims/dim"
  op: "Const"
  attr {
    key: "dtype"
    value {
      type: DT_INT32
    }
  }
  attr {
    key: "value"
    value {
      tensor {
        dtype: DT_INT32
        tensor_shape {
        }
        int_val: -1
      }
    }
  }
}
node {
  name: "gradients/SparseSoftmaxCrossEntropyWithLogits/SparseSoftmaxCrossEntropyWithLogits_grad/ExpandDims"
  op: "ExpandDims"
  input: "gradients/mul_grad/tuple/control_dependency"
  input: "gradients/SparseSoftmaxCrossEntropyWithLogits/SparseSoftmaxCrossEntropyWithLogits_grad/ExpandDims/dim"
  attr {
    key: "T"
    value {
      type: DT_FLOAT
    }
  }
  attr {
    key: "Tdim"
    value {
      type: DT_INT32
    }
  }
}
node {
  name: "gradients/SparseSoftmaxCrossEntropyWithLogits/SparseSoftmaxCrossEntropyWithLogits_grad/mul"
  op: "Mul"
  input: "gradients/SparseSoftmaxCrossEntropyWithLogits/SparseSoftmaxCrossEntropyWithLogits_grad/ExpandDims"
  input: "SparseSoftmaxCrossEntropyWithLogits/SparseSoftmaxCrossEntropyWithLogits:1"
  attr {
    key: "T"
    value {
      type: DT_FLOAT
    }
  }
}
node {
  name: "gradients/xw_plus_b_1_grad/BiasAddGrad"
  op: "BiasAddGrad"
  input: "gradients/SparseSoftmaxCrossEntropyWithLogits/SparseSoftmaxCrossEntropyWithLogits_grad/mul"
  attr {
    key: "T"
    value {
      type: DT_FLOAT
    }
  }
  attr {
    key: "data_format"
    value {
      s: "NHWC"
    }
  }
}
node {
  name: "gradients/xw_plus_b_1_grad/tuple/group_deps"
  op: "NoOp"
  input: "^gradients/SparseSoftmaxCrossEntropyWithLogits/SparseSoftmaxCrossEntropyWithLogits_grad/mul"
  input: "^gradients/xw_plus_b_1_grad/BiasAddGrad"
}
node {
  name: "gradients/xw_plus_b_1_grad/tuple/control_dependency"
  op: "Identity"
  input: "gradients/SparseSoftmaxCrossEntropyWithLogits/SparseSoftmaxCrossEntropyWithLogits_grad/mul"
  input: "^gradients/xw_plus_b_1_grad/tuple/group_deps"
  attr {
    key: "T"
    value {
      type: DT_FLOAT
    }
  }
  attr {
    key: "_class"
    value {
      list {
        s: "loc:@gradients/SparseSoftmaxCrossEntropyWithLogits/SparseSoftmaxCrossEntropyWithLogits_grad/mul"
      }
    }
  }
}
node {
  name: "gradients/xw_plus_b_1_grad/tuple/control_dependency_1"
  op: "Identity"
  input: "gradients/xw_plus_b_1_grad/BiasAddGrad"
  input: "^gradients/xw_plus_b_1_grad/tuple/group_deps"
  attr {
    key: "T"
    value {
      type: DT_FLOAT
    }
  }
  attr {
    key: "_class"
    value {
      list {
        s: "loc:@gradients/xw_plus_b_1_grad/BiasAddGrad"
      }
    }
  }
}
node {
  name: "gradients/xw_plus_b_1/MatMul_grad/MatMul"
  op: "MatMul"
  input: "gradients/xw_plus_b_1_grad/tuple/control_dependency"
  input: "xw_plus_b_1/ReadVariableOp"
  attr {
    key: "T"
    value {
      type: DT_FLOAT
    }
  }
  attr {
    key: "transpose_a"
    value {
      b: false
    }
  }
  attr {
    key: "transpose_b"
    value {
      b: true
    }
  }
}
node {
  name: "gradients/xw_plus_b_1/MatMul_grad/MatMul_1"
  op: "MatMul"
  input: "dropout_2/Mul"
  input: "gradients/xw_plus_b_1_grad/tuple/control_dependency"
  attr {
    key: "T"
    value {
      type: DT_FLOAT
    }
  }
  attr {
    key: "transpose_a"
    value {
      b: true
    }
  }
  attr {
    key: "transpose_b"
    value {
      b: false
    }
  }
}
node {
  name: "gradients/xw_plus_b_1/MatMul_grad/tuple/group_deps"
  op: "NoOp"
  input: "^gradients/xw_plus_b_1/MatMul_grad/MatMul"
  input: "^gradients/xw_plus_b_1/MatMul_grad/MatMul_1"
}
node {
  name: "gradients/xw_plus_b_1/MatMul_grad/tuple/control_dependency"
  op: "Identity"
  input: "gradients/xw_plus_b_1/MatMul_grad/MatMul"
  input: "^gradients/xw_plus_b_1/MatMul_grad/tuple/group_deps"
  attr {
    key: "T"
    value {
      type: DT_FLOAT
    }
  }
  attr {
    key: "_class"
    value {
      list {
        s: "loc:@gradients/xw_plus_b_1/MatMul_grad/MatMul"
      }
    }
  }
}
node {
  name: "gradients/xw_plus_b_1/MatMul_grad/tuple/control_dependency_1"
  op: "Identity"
  input: "gradients/xw_plus_b_1/MatMul_grad/MatMul_1"
  input: "^gradients/xw_plus_b_1/MatMul_grad/tuple/group_deps"
  attr {
    key: "T"
    value {
      type: DT_FLOAT
    }
  }
  attr {
    key: "_class"
    value {
      list {
        s: "loc:@gradients/xw_plus_b_1/MatMul_grad/MatMul_1"
      }
    }
  }
}
node {
  name: "gradients/dropout_2/Mul_grad/Shape"
  op: "Shape"
  input: "dropout_2/RealDiv"
  attr {
    key: "T"
    value {
      type: DT_FLOAT
    }
  }
  attr {
    key: "out_type"
    value {
      type: DT_INT32
    }
  }
}
node {
  name: "gradients/dropout_2/Mul_grad/Shape_1"
  op: "Shape"
  input: "dropout_2/Cast"
  attr {
    key: "T"
    value {
      type: DT_FLOAT
    }
  }
  attr {
    key: "out_type"
    value {
      type: DT_INT32
    }
  }
}
node {
  name: "gradients/dropout_2/Mul_grad/BroadcastGradientArgs"
  op: "BroadcastGradientArgs"
  input: "gradients/dropout_2/Mul_grad/Shape"
  input: "gradients/dropout_2/Mul_grad/Shape_1"
  attr {
    key: "T"
    value {
      type: DT_INT32
    }
  }
}
node {
  name: "gradients/dropout_2/Mul_grad/Mul"
  op: "Mul"
  input: "gradients/xw_plus_b_1/MatMul_grad/tuple/control_dependency"
  input: "dropout_2/Cast"
  attr {
    key: "T"
    value {
      type: DT_FLOAT
    }
  }
}
node {
  name: "gradients/dropout_2/Mul_grad/Sum"
  op: "Sum"
  input: "gradients/dropout_2/Mul_grad/Mul"
  input: "gradients/dropout_2/Mul_grad/BroadcastGradientArgs"
  attr {
    key: "T"
    value {
      type: DT_FLOAT
    }
  }
  attr {
    key: "Tidx"
    value {
      type: DT_INT32
    }
  }
  attr {
    key: "keep_dims"
    value {
      b: false
    }
  }
}
node {
  name: "gradients/dropout_2/Mul_grad/Reshape"
  op: "Reshape"
  input: "gradients/dropout_2/Mul_grad/Sum"
  input: "gradients/dropout_2/Mul_grad/Shape"
  attr {
    key: "T"
    value {
      type: DT_FLOAT
    }
  }
  attr {
    key: "Tshape"
    value {
      type: DT_INT32
    }
  }
}
node {
  name: "gradients/dropout_2/Mul_grad/Mul_1"
  op: "Mul"
  input: "dropout_2/RealDiv"
  input: "gradients/xw_plus_b_1/MatMul_grad/tuple/control_dependency"
  attr {
    key: "T"
    value {
      type: DT_FLOAT
    }
  }
}
node {
  name: "gradients/dropout_2/Mul_grad/Sum_1"
  op: "Sum"
  input: "gradients/dropout_2/Mul_grad/Mul_1"
  input: "gradients/dropout_2/Mul_grad/BroadcastGradientArgs:1"
  attr {
    key: "T"
    value {
      type: DT_FLOAT
    }
  }
  attr {
    key: "Tidx"
    value {
      type: DT_INT32
    }
  }
  attr {
    key: "keep_dims"
    value {
      b: false
    }
  }
}
node {
  name: "gradients/dropout_2/Mul_grad/Reshape_1"
  op: "Reshape"
  input: "gradients/dropout_2/Mul_grad/Sum_1"
  input: "gradients/dropout_2/Mul_grad/Shape_1"
  attr {
    key: "T"
    value {
      type: DT_FLOAT
    }
  }
  attr {
    key: "Tshape"
    value {
      type: DT_INT32
    }
  }
}
node {
  name: "gradients/dropout_2/Mul_grad/tuple/group_deps"
  op: "NoOp"
  input: "^gradients/dropout_2/Mul_grad/Reshape"
  input: "^gradients/dropout_2/Mul_grad/Reshape_1"
}
node {
  name: "gradients/dropout_2/Mul_grad/tuple/control_dependency"
  op: "Identity"
  input: "gradients/dropout_2/Mul_grad/Reshape"
  input: "^gradients/dropout_2/Mul_grad/tuple/group_deps"
  attr {
    key: "T"
    value {
      type: DT_FLOAT
    }
  }
  attr {
    key: "_class"
    value {
      list {
        s: "loc:@gradients/dropout_2/Mul_grad/Reshape"
      }
    }
  }
}
node {
  name: "gradients/dropout_2/Mul_grad/tuple/control_dependency_1"
  op: "Identity"
  input: "gradients/dropout_2/Mul_grad/Reshape_1"
  input: "^gradients/dropout_2/Mul_grad/tuple/group_deps"
  attr {
    key: "T"
    value {
      type: DT_FLOAT
    }
  }
  attr {
    key: "_class"
    value {
      list {
        s: "loc:@gradients/dropout_2/Mul_grad/Reshape_1"
      }
    }
  }
}
node {
  name: "gradients/dropout_2/RealDiv_grad/Shape"
  op: "Const"
  attr {
    key: "dtype"
    value {
      type: DT_INT32
    }
  }
  attr {
    key: "value"
    value {
      tensor {
        dtype: DT_INT32
        tensor_shape {
          dim {
            size: 2
          }
        }
        tensor_content: "O\000\000\000\364\001\000\000"
      }
    }
  }
}
node {
  name: "gradients/dropout_2/RealDiv_grad/Shape_1"
  op: "Shape"
  input: "dropout_2/Sub"
  attr {
    key: "T"
    value {
      type: DT_FLOAT
    }
  }
  attr {
    key: "out_type"
    value {
      type: DT_INT32
    }
  }
}
node {
  name: "gradients/dropout_2/RealDiv_grad/BroadcastGradientArgs"
  op: "BroadcastGradientArgs"
  input: "gradients/dropout_2/RealDiv_grad/Shape"
  input: "gradients/dropout_2/RealDiv_grad/Shape_1"
  attr {
    key: "T"
    value {
      type: DT_INT32
    }
  }
}
node {
  name: "gradients/dropout_2/RealDiv_grad/RealDiv"
  op: "RealDiv"
  input: "gradients/dropout_2/Mul_grad/tuple/control_dependency"
  input: "dropout_2/Sub"
  attr {
    key: "T"
    value {
      type: DT_FLOAT
    }
  }
}
node {
  name: "gradients/dropout_2/RealDiv_grad/Sum"
  op: "Sum"
  input: "gradients/dropout_2/RealDiv_grad/RealDiv"
  input: "gradients/dropout_2/RealDiv_grad/BroadcastGradientArgs"
  attr {
    key: "T"
    value {
      type: DT_FLOAT
    }
  }
  attr {
    key: "Tidx"
    value {
      type: DT_INT32
    }
  }
  attr {
    key: "keep_dims"
    value {
      b: false
    }
  }
}
node {
  name: "gradients/dropout_2/RealDiv_grad/Reshape"
  op: "Reshape"
  input: "gradients/dropout_2/RealDiv_grad/Sum"
  input: "gradients/dropout_2/RealDiv_grad/Shape"
  attr {
    key: "T"
    value {
      type: DT_FLOAT
    }
  }
  attr {
    key: "Tshape"
    value {
      type: DT_INT32
    }
  }
}
node {
  name: "gradients/dropout_2/RealDiv_grad/Neg"
  op: "Neg"
  input: "Reshape_2"
  attr {
    key: "T"
    value {
      type: DT_FLOAT
    }
  }
}
node {
  name: "gradients/dropout_2/RealDiv_grad/RealDiv_1"
  op: "RealDiv"
  input: "gradients/dropout_2/RealDiv_grad/Neg"
  input: "dropout_2/Sub"
  attr {
    key: "T"
    value {
      type: DT_FLOAT
    }
  }
}
node {
  name: "gradients/dropout_2/RealDiv_grad/RealDiv_2"
  op: "RealDiv"
  input: "gradients/dropout_2/RealDiv_grad/RealDiv_1"
  input: "dropout_2/Sub"
  attr {
    key: "T"
    value {
      type: DT_FLOAT
    }
  }
}
node {
  name: "gradients/dropout_2/RealDiv_grad/mul"
  op: "Mul"
  input: "gradients/dropout_2/Mul_grad/tuple/control_dependency"
  input: "gradients/dropout_2/RealDiv_grad/RealDiv_2"
  attr {
    key: "T"
    value {
      type: DT_FLOAT
    }
  }
}
node {
  name: "gradients/dropout_2/RealDiv_grad/Sum_1"
  op: "Sum"
  input: "gradients/dropout_2/RealDiv_grad/mul"
  input: "gradients/dropout_2/RealDiv_grad/BroadcastGradientArgs:1"
  attr {
    key: "T"
    value {
      type: DT_FLOAT
    }
  }
  attr {
    key: "Tidx"
    value {
      type: DT_INT32
    }
  }
  attr {
    key: "keep_dims"
    value {
      b: false
    }
  }
}
node {
  name: "gradients/dropout_2/RealDiv_grad/Reshape_1"
  op: "Reshape"
  input: "gradients/dropout_2/RealDiv_grad/Sum_1"
  input: "gradients/dropout_2/RealDiv_grad/Shape_1"
  attr {
    key: "T"
    value {
      type: DT_FLOAT
    }
  }
  attr {
    key: "Tshape"
    value {
      type: DT_INT32
    }
  }
}
node {
  name: "gradients/dropout_2/RealDiv_grad/tuple/group_deps"
  op: "NoOp"
  input: "^gradients/dropout_2/RealDiv_grad/Reshape"
  input: "^gradients/dropout_2/RealDiv_grad/Reshape_1"
}
node {
  name: "gradients/dropout_2/RealDiv_grad/tuple/control_dependency"
  op: "Identity"
  input: "gradients/dropout_2/RealDiv_grad/Reshape"
  input: "^gradients/dropout_2/RealDiv_grad/tuple/group_deps"
  attr {
    key: "T"
    value {
      type: DT_FLOAT
    }
  }
  attr {
    key: "_class"
    value {
      list {
        s: "loc:@gradients/dropout_2/RealDiv_grad/Reshape"
      }
    }
  }
}
node {
  name: "gradients/dropout_2/RealDiv_grad/tuple/control_dependency_1"
  op: "Identity"
  input: "gradients/dropout_2/RealDiv_grad/Reshape_1"
  input: "^gradients/dropout_2/RealDiv_grad/tuple/group_deps"
  attr {
    key: "T"
    value {
      type: DT_FLOAT
    }
  }
  attr {
    key: "_class"
    value {
      list {
        s: "loc:@gradients/dropout_2/RealDiv_grad/Reshape_1"
      }
    }
  }
}
node {
  name: "gradients/Reshape_2_grad/Shape"
  op: "Const"
  attr {
    key: "dtype"
    value {
      type: DT_INT32
    }
  }
  attr {
    key: "value"
    value {
      tensor {
        dtype: DT_INT32
        tensor_shape {
          dim {
            size: 3
          }
        }
        tensor_content: "\001\000\000\000O\000\000\000\364\001\000\000"
      }
    }
  }
}
node {
  name: "gradients/Reshape_2_grad/Reshape"
  op: "Reshape"
  input: "gradients/dropout_2/RealDiv_grad/tuple/control_dependency"
  input: "gradients/Reshape_2_grad/Shape"
  attr {
    key: "T"
    value {
      type: DT_FLOAT
    }
  }
  attr {
    key: "Tshape"
    value {
      type: DT_INT32
    }
  }
}
node {
  name: "gradients/strided_slice_1_grad/Shape"
  op: "Const"
  attr {
    key: "dtype"
    value {
      type: DT_INT32
    }
  }
  attr {
    key: "value"
    value {
      tensor {
        dtype: DT_INT32
        tensor_shape {
          dim {
            size: 3
          }
        }
        tensor_content: "\001\000\000\000\237\000\000\000\364\001\000\000"
      }
    }
  }
}
node {
  name: "gradients/strided_slice_1_grad/StridedSliceGrad/shape"
  op: "Const"
  attr {
    key: "dtype"
    value {
      type: DT_INT32
    }
  }
  attr {
    key: "value"
    value {
      tensor {
        dtype: DT_INT32
        tensor_shape {
          dim {
            size: 3
          }
        }
        tensor_content: "\001\000\000\000\237\000\000\000\364\001\000\000"
      }
    }
  }
}
node {
  name: "gradients/strided_slice_1_grad/StridedSliceGrad/begin"
  op: "Const"
  attr {
    key: "dtype"
    value {
      type: DT_INT32
    }
  }
  attr {
    key: "value"
    value {
      tensor {
        dtype: DT_INT32
        tensor_shape {
          dim {
            size: 3
          }
        }
        tensor_content: "\000\000\000\000P\000\000\000\000\000\000\000"
      }
    }
  }
}
node {
  name: "gradients/strided_slice_1_grad/StridedSliceGrad/end"
  op: "Const"
  attr {
    key: "dtype"
    value {
      type: DT_INT32
    }
  }
  attr {
    key: "value"
    value {
      tensor {
        dtype: DT_INT32
        tensor_shape {
          dim {
            size: 3
          }
        }
        tensor_content: "\000\000\000\000\000\000\000\000\000\000\000\000"
      }
    }
  }
}
node {
  name: "gradients/strided_slice_1_grad/StridedSliceGrad/strides"
  op: "Const"
  attr {
    key: "dtype"
    value {
      type: DT_INT32
    }
  }
  attr {
    key: "value"
    value {
      tensor {
        dtype: DT_INT32
        tensor_shape {
          dim {
            size: 3
          }
        }
        tensor_content: "\001\000\000\000\001\000\000\000\001\000\000\000"
      }
    }
  }
}
node {
  name: "gradients/strided_slice_1_grad/StridedSliceGrad"
  op: "StridedSliceGrad"
  input: "gradients/strided_slice_1_grad/StridedSliceGrad/shape"
  input: "gradients/strided_slice_1_grad/StridedSliceGrad/begin"
  input: "gradients/strided_slice_1_grad/StridedSliceGrad/end"
  input: "gradients/strided_slice_1_grad/StridedSliceGrad/strides"
  input: "gradients/Reshape_2_grad/Reshape"
  attr {
    key: "Index"
    value {
      type: DT_INT32
    }
  }
  attr {
    key: "T"
    value {
      type: DT_FLOAT
    }
  }
  attr {
    key: "begin_mask"
    value {
      i: 5
    }
  }
  attr {
    key: "ellipsis_mask"
    value {
      i: 0
    }
  }
  attr {
    key: "end_mask"
    value {
      i: 7
    }
  }
  attr {
    key: "new_axis_mask"
    value {
      i: 0
    }
  }
  attr {
    key: "shrink_axis_mask"
    value {
      i: 0
    }
  }
}
node {
  name: "gradients/LSTM_Caption_1/rnn/transpose_1_grad/InvertPermutation"
  op: "InvertPermutation"
  input: "LSTM_Caption_1/rnn/concat_2"
  attr {
    key: "T"
    value {
      type: DT_INT32
    }
  }
}
node {
  name: "gradients/LSTM_Caption_1/rnn/transpose_1_grad/transpose"
  op: "Transpose"
  input: "gradients/strided_slice_1_grad/StridedSliceGrad"
  input: "gradients/LSTM_Caption_1/rnn/transpose_1_grad/InvertPermutation"
  attr {
    key: "T"
    value {
      type: DT_FLOAT
    }
  }
  attr {
    key: "Tperm"
    value {
      type: DT_INT32
    }
  }
}
node {
  name: "gradients/LSTM_Caption_1/rnn/TensorArrayV2Stack/TensorListStack_grad/TensorListFromTensor/element_shape"
  op: "Const"
  attr {
    key: "dtype"
    value {
      type: DT_INT32
    }
  }
  attr {
    key: "value"
    value {
      tensor {
        dtype: DT_INT32
        tensor_shape {
          dim {
            size: 2
          }
        }
        tensor_content: "\001\000\000\000\364\001\000\000"
      }
    }
  }
}
node {
  name: "gradients/LSTM_Caption_1/rnn/TensorArrayV2Stack/TensorListStack_grad/TensorListFromTensor"
  op: "TensorListFromTensor"
  input: "gradients/LSTM_Caption_1/rnn/transpose_1_grad/transpose"
  input: "gradients/LSTM_Caption_1/rnn/TensorArrayV2Stack/TensorListStack_grad/TensorListFromTensor/element_shape"
  attr {
    key: "element_dtype"
    value {
      type: DT_FLOAT
    }
  }
  attr {
    key: "shape_type"
    value {
      type: DT_INT32
    }
  }
  experimental_type {
    type_id: TFT_PRODUCT
    args {
      type_id: TFT_ARRAY
      args {
        type_id: TFT_TENSOR
        args {
          type_id: TFT_FLOAT
        }
      }
    }
  }
}
node {
  name: "gradients/zeros_like_1"
  op: "ZerosLike"
  input: "LSTM_Caption_1/rnn/while:4"
  attr {
    key: "T"
    value {
      type: DT_FLOAT
    }
  }
}
node {
  name: "gradients/zeros_like_2"
  op: "ZerosLike"
  input: "LSTM_Caption_1/rnn/while:5"
  attr {
    key: "T"
    value {
      type: DT_FLOAT
    }
  }
}
node {
  name: "gradients/zeros_like_3"
  op: "ZerosLike"
  input: "LSTM_Caption_1/rnn/while:7"
  attr {
    key: "T"
    value {
      type: DT_VARIANT
    }
  }
}
node {
  name: "gradients/zeros_like_4"
  op: "ZerosLike"
  input: "LSTM_Caption_1/rnn/while:8"
  attr {
    key: "T"
    value {
      type: DT_FLOAT
    }
  }
}
node {
  name: "gradients/zeros_like_5"
  op: "ZerosLike"
  input: "LSTM_Caption_1/rnn/while:9"
  attr {
    key: "T"
    value {
      type: DT_FLOAT
    }
  }
}
node {
  name: "gradients/zeros_like_6"
  op: "ZerosLike"
  input: "LSTM_Caption_1/rnn/while:10"
  attr {
    key: "T"
    value {
      type: DT_FLOAT
    }
  }
}
node {
  name: "gradients/LSTM_Caption_1/rnn/while_grad/grad_counter"
  op: "Const"
  attr {
    key: "dtype"
    value {
      type: DT_INT32
    }
  }
  attr {
    key: "value"
    value {
      tensor {
        dtype: DT_INT32
        tensor_shape {
        }
        int_val: 0
      }
    }
  }
}
node {
  name: "gradients/LSTM_Caption_1/rnn/while_grad/Const"
  op: "Const"
  attr {
    key: "dtype"
    value {
      type: DT_INT32
    }
  }
  attr {
    key: "value"
    value {
      tensor {
        dtype: DT_INT32
        tensor_shape {
          dim {
          }
        }
      }
    }
  }
}
node {
  name: "gradients/LSTM_Caption_1/rnn/while_grad/Placeholder_0/accumulator"
  op: "EmptyTensorList"
  input: "gradients/LSTM_Caption_1/rnn/while_grad/Const"
  input: "LSTM_Caption_1/rnn/strided_slice"
  attr {
    key: "element_dtype"
    value {
      type: DT_INT32
    }
  }
  attr {
    key: "shape_type"
    value {
      type: DT_INT32
    }
  }
  experimental_type {
    type_id: TFT_PRODUCT
    args {
      type_id: TFT_ARRAY
      args {
        type_id: TFT_TENSOR
        args {
          type_id: TFT_INT32
        }
      }
    }
  }
}
node {
  name: "gradients/LSTM_Caption_1/rnn/while_grad/gradients/dropout/Mul_grad/Shape_0/accumulator/element_shape"
  op: "Const"
  attr {
    key: "dtype"
    value {
      type: DT_INT32
    }
  }
  attr {
    key: "value"
    value {
      tensor {
        dtype: DT_INT32
        tensor_shape {
          dim {
            size: 1
          }
        }
        int_val: -1
      }
    }
  }
}
node {
  name: "gradients/LSTM_Caption_1/rnn/while_grad/gradients/dropout/Mul_grad/Shape_0/accumulator"
  op: "EmptyTensorList"
  input: "gradients/LSTM_Caption_1/rnn/while_grad/gradients/dropout/Mul_grad/Shape_0/accumulator/element_shape"
  input: "LSTM_Caption_1/rnn/strided_slice"
  attr {
    key: "element_dtype"
    value {
      type: DT_INT32
    }
  }
  attr {
    key: "shape_type"
    value {
      type: DT_INT32
    }
  }
  experimental_type {
    type_id: TFT_PRODUCT
    args {
      type_id: TFT_ARRAY
      args {
        type_id: TFT_TENSOR
        args {
          type_id: TFT_INT32
        }
      }
    }
  }
}
node {
  name: "gradients/LSTM_Caption_1/rnn/while_grad/gradients/dropout/Mul_grad/Shape_1_0/accumulator/element_shape"
  op: "Const"
  attr {
    key: "dtype"
    value {
      type: DT_INT32
    }
  }
  attr {
    key: "value"
    value {
      tensor {
        dtype: DT_INT32
        tensor_shape {
          dim {
            size: 1
          }
        }
        int_val: -1
      }
    }
  }
}
node {
  name: "gradients/LSTM_Caption_1/rnn/while_grad/gradients/dropout/Mul_grad/Shape_1_0/accumulator"
  op: "EmptyTensorList"
  input: "gradients/LSTM_Caption_1/rnn/while_grad/gradients/dropout/Mul_grad/Shape_1_0/accumulator/element_shape"
  input: "LSTM_Caption_1/rnn/strided_slice"
  attr {
    key: "element_dtype"
    value {
      type: DT_INT32
    }
  }
  attr {
    key: "shape_type"
    value {
      type: DT_INT32
    }
  }
  experimental_type {
    type_id: TFT_PRODUCT
    args {
      type_id: TFT_ARRAY
      args {
        type_id: TFT_TENSOR
        args {
          type_id: TFT_INT32
        }
      }
    }
  }
}
node {
  name: "gradients/LSTM_Caption_1/rnn/while_grad/dropout/Cast_0/accumulator/element_shape"
  op: "Const"
  attr {
    key: "dtype"
    value {
      type: DT_INT32
    }
  }
  attr {
    key: "value"
    value {
      tensor {
        dtype: DT_INT32
        tensor_shape {
        }
        int_val: -1
      }
    }
  }
}
node {
  name: "gradients/LSTM_Caption_1/rnn/while_grad/dropout/Cast_0/accumulator"
  op: "EmptyTensorList"
  input: "gradients/LSTM_Caption_1/rnn/while_grad/dropout/Cast_0/accumulator/element_shape"
  input: "LSTM_Caption_1/rnn/strided_slice"
  attr {
    key: "element_dtype"
    value {
      type: DT_FLOAT
    }
  }
  attr {
    key: "shape_type"
    value {
      type: DT_INT32
    }
  }
  experimental_type {
    type_id: TFT_PRODUCT
    args {
      type_id: TFT_ARRAY
      args {
        type_id: TFT_TENSOR
        args {
          type_id: TFT_FLOAT
        }
      }
    }
  }
}
node {
  name: "gradients/LSTM_Caption_1/rnn/while_grad/dropout/RealDiv_0/accumulator/element_shape"
  op: "Const"
  attr {
    key: "dtype"
    value {
      type: DT_INT32
    }
  }
  attr {
    key: "value"
    value {
      tensor {
        dtype: DT_INT32
        tensor_shape {
        }
        int_val: -1
      }
    }
  }
}
node {
  name: "gradients/LSTM_Caption_1/rnn/while_grad/dropout/RealDiv_0/accumulator"
  op: "EmptyTensorList"
  input: "gradients/LSTM_Caption_1/rnn/while_grad/dropout/RealDiv_0/accumulator/element_shape"
  input: "LSTM_Caption_1/rnn/strided_slice"
  attr {
    key: "element_dtype"
    value {
      type: DT_FLOAT
    }
  }
  attr {
    key: "shape_type"
    value {
      type: DT_INT32
    }
  }
  experimental_type {
    type_id: TFT_PRODUCT
    args {
      type_id: TFT_ARRAY
      args {
        type_id: TFT_TENSOR
        args {
          type_id: TFT_FLOAT
        }
      }
    }
  }
}
node {
  name: "gradients/LSTM_Caption_1/rnn/while_grad/gradients/dropout/RealDiv_grad/Shape_1_0/accumulator/element_shape"
  op: "Const"
  attr {
    key: "dtype"
    value {
      type: DT_INT32
    }
  }
  attr {
    key: "value"
    value {
      tensor {
        dtype: DT_INT32
        tensor_shape {
          dim {
            size: 1
          }
        }
        int_val: -1
      }
    }
  }
}
node {
  name: "gradients/LSTM_Caption_1/rnn/while_grad/gradients/dropout/RealDiv_grad/Shape_1_0/accumulator"
  op: "EmptyTensorList"
  input: "gradients/LSTM_Caption_1/rnn/while_grad/gradients/dropout/RealDiv_grad/Shape_1_0/accumulator/element_shape"
  input: "LSTM_Caption_1/rnn/strided_slice"
  attr {
    key: "element_dtype"
    value {
      type: DT_INT32
    }
  }
  attr {
    key: "shape_type"
    value {
      type: DT_INT32
    }
  }
  experimental_type {
    type_id: TFT_PRODUCT
    args {
      type_id: TFT_ARRAY
      args {
        type_id: TFT_TENSOR
        args {
          type_id: TFT_INT32
        }
      }
    }
  }
}
node {
  name: "gradients/LSTM_Caption_1/rnn/while_grad/dropout/Sub_0/accumulator/element_shape"
  op: "Const"
  attr {
    key: "dtype"
    value {
      type: DT_INT32
    }
  }
  attr {
    key: "value"
    value {
      tensor {
        dtype: DT_INT32
        tensor_shape {
        }
        int_val: -1
      }
    }
  }
}
node {
  name: "gradients/LSTM_Caption_1/rnn/while_grad/dropout/Sub_0/accumulator"
  op: "EmptyTensorList"
  input: "gradients/LSTM_Caption_1/rnn/while_grad/dropout/Sub_0/accumulator/element_shape"
  input: "LSTM_Caption_1/rnn/strided_slice"
  attr {
    key: "element_dtype"
    value {
      type: DT_FLOAT
    }
  }
  attr {
    key: "shape_type"
    value {
      type: DT_INT32
    }
  }
  experimental_type {
    type_id: TFT_PRODUCT
    args {
      type_id: TFT_ARRAY
      args {
        type_id: TFT_TENSOR
        args {
          type_id: TFT_FLOAT
        }
      }
    }
  }
}
node {
  name: "gradients/LSTM_Caption_1/rnn/while_grad/basic_lstm_cell/Mul_2_0/accumulator/element_shape"
  op: "Const"
  attr {
    key: "dtype"
    value {
      type: DT_INT32
    }
  }
  attr {
    key: "value"
    value {
      tensor {
        dtype: DT_INT32
        tensor_shape {
          dim {
            size: 2
          }
        }
        tensor_content: "\001\000\000\000\364\001\000\000"
      }
    }
  }
}
node {
  name: "gradients/LSTM_Caption_1/rnn/while_grad/basic_lstm_cell/Mul_2_0/accumulator"
  op: "EmptyTensorList"
  input: "gradients/LSTM_Caption_1/rnn/while_grad/basic_lstm_cell/Mul_2_0/accumulator/element_shape"
  input: "LSTM_Caption_1/rnn/strided_slice"
  attr {
    key: "element_dtype"
    value {
      type: DT_FLOAT
    }
  }
  attr {
    key: "shape_type"
    value {
      type: DT_INT32
    }
  }
  experimental_type {
    type_id: TFT_PRODUCT
    args {
      type_id: TFT_ARRAY
      args {
        type_id: TFT_TENSOR
        args {
          type_id: TFT_FLOAT
        }
      }
    }
  }
}
node {
  name: "gradients/LSTM_Caption_1/rnn/while_grad/basic_lstm_cell/Sigmoid_2_0/accumulator/element_shape"
  op: "Const"
  attr {
    key: "dtype"
    value {
      type: DT_INT32
    }
  }
  attr {
    key: "value"
    value {
      tensor {
        dtype: DT_INT32
        tensor_shape {
          dim {
            size: 2
          }
        }
        tensor_content: "\001\000\000\000\364\001\000\000"
      }
    }
  }
}
node {
  name: "gradients/LSTM_Caption_1/rnn/while_grad/basic_lstm_cell/Sigmoid_2_0/accumulator"
  op: "EmptyTensorList"
  input: "gradients/LSTM_Caption_1/rnn/while_grad/basic_lstm_cell/Sigmoid_2_0/accumulator/element_shape"
  input: "LSTM_Caption_1/rnn/strided_slice"
  attr {
    key: "element_dtype"
    value {
      type: DT_FLOAT
    }
  }
  attr {
    key: "shape_type"
    value {
…
      input: "gradients/sub_grad/BroadcastGradientArgs/TensorListPopBack_1:tensor:0"
      attr {
        key: "T"
        value {
          type: DT_INT32
        }
      }
    }
    node_def {
      name: "gradients/sub_grad/Sum"
      op: "Sum"
      input: "gradients/dropout/Sub_grad/Reshape_1:output:0"
      input: "gradients/sub_grad/BroadcastGradientArgs:r0:0"
      attr {
        key: "T"
        value {
          type: DT_FLOAT
        }
      }
      attr {
        key: "Tidx"
        value {
          type: DT_INT32
        }
      }
      attr {
        key: "keep_dims"
        value {
          b: false
        }
      }
    }
    node_def {
      name: "gradients/sub_grad/Reshape"
      op: "Reshape"
      input: "gradients/sub_grad/Sum:output:0"
      input: "gradients/sub_grad/BroadcastGradientArgs/TensorListPopBack:tensor:0"
      attr {
        key: "T"
        value {
          type: DT_FLOAT
        }
      }
      attr {
        key: "Tshape"
        value {
          type: DT_INT32
        }
      }
    }
    node_def {
      name: "gradients/sub_grad/Neg"
      op: "Neg"
      input: "gradients/dropout/Sub_grad/Reshape_1:output:0"
      attr {
        key: "T"
        value {
          type: DT_FLOAT
        }
      }
    }
    node_def {
      name: "gradients/sub_grad/Sum_1"
      op: "Sum"
      input: "gradients/sub_grad/Neg:y:0"
      input: "gradients/sub_grad/BroadcastGradientArgs:r1:0"
      attr {
        key: "T"
        value {
          type: DT_FLOAT
        }
      }
      attr {
        key: "Tidx"
        value {
          type: DT_INT32
        }
      }
      attr {
        key: "keep_dims"
        value {
          b: false
        }
      }
    }
    node_def {
      name: "gradients/sub_grad/Reshape_1"
      op: "Reshape"
      input: "gradients/sub_grad/Sum_1:output:0"
      input: "gradients/sub_grad/BroadcastGradientArgs/TensorListPopBack_1:tensor:0"
      attr {
        key: "T"
        value {
          type: DT_FLOAT
        }
      }
      attr {
        key: "Tshape"
        value {
          type: DT_INT32
        }
      }
    }
    node_def {
      name: "gradients/AddN_1"
      op: "AddN"
      input: "gradients/grad_ys_1:output:0"
      input: "gradients/basic_lstm_cell/Tanh_1_grad/TanhGrad:z:0"
      attr {
        key: "N"
        value {
          i: 2
        }
      }
      attr {
        key: "T"
        value {
          type: DT_FLOAT
        }
      }
      attr {
        key: "_class"
        value {
          list {
            s: "loc:@gradients/grad_ys_1"
          }
        }
      }
    }
    node_def {
      name: "gradients/AddN_2"
      op: "AddN"
      input: "gradients/grad_ys_6:output:0"
      input: "gradients/sub_grad/Reshape_1:output:0"
      attr {
        key: "N"
        value {
          i: 2
        }
      }
      attr {
        key: "T"
        value {
          type: DT_FLOAT
        }
      }
      attr {
        key: "_class"
        value {
          list {
            s: "loc:@gradients/grad_ys_6"
          }
        }
      }
    }
    node_def {
      name: "gradients/basic_lstm_cell/Mul_grad/Mul/TensorListPopBack/element_shape"
      op: "Const"
      attr {
        key: "dtype"
        value {
          type: DT_INT32
        }
      }
      attr {
        key: "value"
        value {
          tensor {
            dtype: DT_INT32
            tensor_shape {
            }
            int_val: -1
          }
        }
      }
    }
    node_def {
      name: "gradients/basic_lstm_cell/Mul_grad/Mul/TensorListPopBack"
      op: "TensorListPopBack"
      input: "gradients_basic_lstm_cell_mul_grad_mul_basic_lstm_cell_sigmoid"
      input: "gradients/basic_lstm_cell/Mul_grad/Mul/TensorListPopBack/element_shape:output:0"
      attr {
        key: "element_dtype"
        value {
          type: DT_FLOAT
        }
      }
    }
    node_def {
      name: "gradients/basic_lstm_cell/Mul_grad/Mul"
      op: "Mul"
      input: "gradients/AddN_1:sum:0"
      input: "gradients/basic_lstm_cell/Mul_grad/Mul/TensorListPopBack:tensor:0"
      attr {
        key: "T"
        value {
          type: DT_FLOAT
        }
      }
    }
    node_def {
      name: "gradients/basic_lstm_cell/Mul_grad/Mul_1/TensorListPopBack/element_shape"
      op: "Const"
      attr {
        key: "dtype"
        value {
          type: DT_INT32
        }
      }
      attr {
        key: "value"
        value {
          tensor {
            dtype: DT_INT32
            tensor_shape {
            }
            int_val: -1
          }
        }
      }
    }
    node_def {
      name: "gradients/basic_lstm_cell/Mul_grad/Mul_1/TensorListPopBack"
      op: "TensorListPopBack"
      input: "gradients_basic_lstm_cell_mul_grad_mul_1_placeholder_2"
      input: "gradients/basic_lstm_cell/Mul_grad/Mul_1/TensorListPopBack/element_shape:output:0"
      attr {
        key: "element_dtype"
        value {
          type: DT_FLOAT
        }
      }
    }
    node_def {
      name: "gradients/basic_lstm_cell/Mul_grad/Mul_1"
      op: "Mul"
      input: "gradients/AddN_1:sum:0"
      input: "gradients/basic_lstm_cell/Mul_grad/Mul_1/TensorListPopBack:tensor:0"
      attr {
        key: "T"
        value {
          type: DT_FLOAT
        }
      }
    }
    node_def {
      name: "gradients/basic_lstm_cell/Mul_1_grad/Mul/TensorListPopBack/element_shape"
      op: "Const"
      attr {
        key: "dtype"
        value {
          type: DT_INT32
        }
      }
      attr {
        key: "value"
        value {
          tensor {
            dtype: DT_INT32
            tensor_shape {
            }
            int_val: -1
          }
        }
      }
    }
    node_def {
      name: "gradients/basic_lstm_cell/Mul_1_grad/Mul/TensorListPopBack"
      op: "TensorListPopBack"
      input: "gradients_basic_lstm_cell_mul_1_grad_mul_basic_lstm_cell_tanh"
      input: "gradients/basic_lstm_cell/Mul_1_grad/Mul/TensorListPopBack/element_shape:output:0"
      attr {
        key: "element_dtype"
        value {
          type: DT_FLOAT
        }
      }
    }
    node_def {
      name: "gradients/basic_lstm_cell/Mul_1_grad/Mul"
      op: "Mul"
      input: "gradients/AddN_1:sum:0"
      input: "gradients/basic_lstm_cell/Mul_1_grad/Mul/TensorListPopBack:tensor:0"
      attr {
        key: "T"
        value {
          type: DT_FLOAT
        }
      }
    }
    node_def {
      name: "gradients/basic_lstm_cell/Mul_1_grad/Mul_1/TensorListPopBack/element_shape"
      op: "Const"
      attr {
        key: "dtype"
        value {
          type: DT_INT32
        }
      }
      attr {
        key: "value"
        value {
          tensor {
            dtype: DT_INT32
            tensor_shape {
            }
            int_val: -1
          }
        }
      }
    }
    node_def {
      name: "gradients/basic_lstm_cell/Mul_1_grad/Mul_1/TensorListPopBack"
      op: "TensorListPopBack"
      input: "gradients_basic_lstm_cell_mul_1_grad_mul_1_basic_lstm_cell_sigmoid_1"
      input: "gradients/basic_lstm_cell/Mul_1_grad/Mul_1/TensorListPopBack/element_shape:output:0"
      attr {
        key: "element_dtype"
        value {
          type: DT_FLOAT
        }
      }
    }
    node_def {
      name: "gradients/basic_lstm_cell/Mul_1_grad/Mul_1"
      op: "Mul"
      input: "gradients/AddN_1:sum:0"
      input: "gradients/basic_lstm_cell/Mul_1_grad/Mul_1/TensorListPopBack:tensor:0"
      attr {
        key: "T"
        value {
          type: DT_FLOAT
        }
      }
    }
    node_def {
      name: "gradients/basic_lstm_cell/Sigmoid_grad/SigmoidGrad"
      op: "SigmoidGrad"
      input: "gradients/basic_lstm_cell/Mul_grad/Mul/TensorListPopBack:tensor:0"
      input: "gradients/basic_lstm_cell/Mul_grad/Mul_1:z:0"
      attr {
        key: "T"
        value {
          type: DT_FLOAT
        }
      }
    }
    node_def {
      name: "gradients/basic_lstm_cell/Sigmoid_1_grad/SigmoidGrad"
      op: "SigmoidGrad"
      input: "gradients/basic_lstm_cell/Mul_1_grad/Mul_1/TensorListPopBack:tensor:0"
      input: "gradients/basic_lstm_cell/Mul_1_grad/Mul:z:0"
      attr {
        key: "T"
        value {
          type: DT_FLOAT
        }
      }
    }
    node_def {
      name: "gradients/basic_lstm_cell/Tanh_grad/TanhGrad"
      op: "TanhGrad"
      input: "gradients/basic_lstm_cell/Mul_1_grad/Mul/TensorListPopBack:tensor:0"
      input: "gradients/basic_lstm_cell/Mul_1_grad/Mul_1:z:0"
      attr {
        key: "T"
        value {
          type: DT_FLOAT
        }
      }
    }
    node_def {
      name: "gradients/basic_lstm_cell/Add_grad/BroadcastGradientArgs/s0"
      op: "Const"
      attr {
        key: "dtype"
        value {
          type: DT_INT32
        }
      }
      attr {
        key: "value"
        value {
          tensor {
            dtype: DT_INT32
            tensor_shape {
              dim {
                size: 2
              }
            }
            tensor_content: "\001\000\000\000\364\001\000\000"
          }
        }
      }
    }
    node_def {
      name: "gradients/basic_lstm_cell/Add_grad/BroadcastGradientArgs/s1"
      op: "Const"
      attr {
        key: "dtype"
        value {
          type: DT_INT32
        }
      }
      attr {
        key: "value"
        value {
          tensor {
            dtype: DT_INT32
            tensor_shape {
              dim {
              }
            }
          }
        }
      }
    }
    node_def {
      name: "gradients/basic_lstm_cell/Add_grad/BroadcastGradientArgs"
      op: "BroadcastGradientArgs"
      input: "gradients/basic_lstm_cell/Add_grad/BroadcastGradientArgs/s0:output:0"
      input: "gradients/basic_lstm_cell/Add_grad/BroadcastGradientArgs/s1:output:0"
      attr {
        key: "T"
        value {
          type: DT_INT32
        }
      }
    }
    node_def {
      name: "gradients/basic_lstm_cell/Add_grad/Sum/reduction_indices"
      op: "Const"
      attr {
        key: "dtype"
        value {
          type: DT_INT32
        }
      }
      attr {
        key: "value"
        value {
          tensor {
            dtype: DT_INT32
            tensor_shape {
              dim {
                size: 2
              }
            }
            tensor_content: "\000\000\000\000\001\000\000\000"
          }
        }
      }
    }
    node_def {
      name: "gradients/basic_lstm_cell/Add_grad/Sum"
      op: "Sum"
      input: "gradients/basic_lstm_cell/Sigmoid_grad/SigmoidGrad:z:0"
      input: "gradients/basic_lstm_cell/Add_grad/Sum/reduction_indices:output:0"
      attr {
        key: "T"
        value {
          type: DT_FLOAT
        }
      }
      attr {
        key: "Tidx"
        value {
          type: DT_INT32
        }
      }
      attr {
        key: "keep_dims"
        value {
          b: false
        }
      }
    }
    node_def {
      name: "gradients/basic_lstm_cell/Add_grad/Reshape/shape"
      op: "Const"
      attr {
        key: "dtype"
        value {
          type: DT_FLOAT
        }
      }
      attr {
        key: "value"
        value {
          tensor {
            dtype: DT_FLOAT
            tensor_shape {
              dim {
              }
            }
          }
        }
      }
    }
    node_def {
      name: "gradients/basic_lstm_cell/Add_grad/Reshape/shape_1"
      op: "Const"
      attr {
        key: "dtype"
        value {
          type: DT_INT32
        }
      }
      attr {
        key: "value"
        value {
          tensor {
            dtype: DT_INT32
            tensor_shape {
              dim {
              }
            }
          }
        }
      }
    }
    node_def {
      name: "gradients/basic_lstm_cell/Add_grad/Reshape"
      op: "Reshape"
      input: "gradients/basic_lstm_cell/Add_grad/Sum:output:0"
      input: "gradients/basic_lstm_cell/Add_grad/Reshape/shape_1:output:0"
      attr {
        key: "T"
        value {
          type: DT_FLOAT
        }
      }
      attr {
        key: "Tshape"
        value {
          type: DT_INT32
        }
      }
    }
    node_def {
      name: "gradients/basic_lstm_cell/split_grad/concat/Const"
      op: "Const"
      attr {
        key: "dtype"
        value {
          type: DT_INT32
        }
      }
      attr {
        key: "value"
        value {
          tensor {
            dtype: DT_INT32
            tensor_shape {
            }
            int_val: 1
          }
        }
      }
    }
    node_def {
      name: "gradients/basic_lstm_cell/split_grad/concat"
      op: "ConcatV2"
      input: "gradients/basic_lstm_cell/Sigmoid_1_grad/SigmoidGrad:z:0"
      input: "gradients/basic_lstm_cell/Tanh_grad/TanhGrad:z:0"
      input: "gradients/basic_lstm_cell/Sigmoid_grad/SigmoidGrad:z:0"
      input: "gradients/basic_lstm_cell/Sigmoid_2_grad/SigmoidGrad:z:0"
      input: "gradients/basic_lstm_cell/split_grad/concat/Const:output:0"
      attr {
        key: "N"
        value {
          i: 4
        }
      }
      attr {
        key: "T"
        value {
          type: DT_FLOAT
        }
      }
      attr {
        key: "Tidx"
        value {
          type: DT_INT32
        }
      }
    }
    node_def {
      name: "gradients/basic_lstm_cell/BiasAdd_grad/BiasAddGrad"
      op: "BiasAddGrad"
      input: "gradients/basic_lstm_cell/split_grad/concat:output:0"
      attr {
        key: "T"
        value {
          type: DT_FLOAT
        }
      }
      attr {
        key: "data_format"
        value {
          s: "NHWC"
        }
      }
    }
    node_def {
      name: "gradients/basic_lstm_cell/MatMul_grad/MatMul"
      op: "MatMul"
      input: "gradients/basic_lstm_cell/split_grad/concat:output:0"
      input: "gradients_basic_lstm_cell_matmul_grad_matmul_basic_lstm_cell_matmul_lstm_caption_rnn_basic_lstm_cell_kernel_read_identity_0"
      attr {
        key: "T"
        value {
          type: DT_FLOAT
        }
      }
      attr {
        key: "transpose_a"
        value {
          b: false
        }
      }
      attr {
        key: "transpose_b"
        value {
          b: true
        }
      }
    }
    node_def {
      name: "gradients/basic_lstm_cell/MatMul_grad/MatMul_1/TensorListPopBack/element_shape"
      op: "Const"
      attr {
        key: "dtype"
        value {
          type: DT_INT32
        }
      }
      attr {
        key: "value"
        value {
          tensor {
            dtype: DT_INT32
            tensor_shape {
            }
            int_val: -1
          }
        }
      }
    }
    node_def {
      name: "gradients/basic_lstm_cell/MatMul_grad/MatMul_1/TensorListPopBack"
      op: "TensorListPopBack"
      input: "gradients_basic_lstm_cell_matmul_grad_matmul_1_basic_lstm_cell_concat"
      input: "gradients/basic_lstm_cell/MatMul_grad/MatMul_1/TensorListPopBack/element_shape:output:0"
      attr {
        key: "element_dtype"
        value {
          type: DT_FLOAT
        }
      }
    }
    node_def {
      name: "gradients/basic_lstm_cell/MatMul_grad/MatMul_1"
      op: "MatMul"
      input: "gradients/basic_lstm_cell/MatMul_grad/MatMul_1/TensorListPopBack:tensor:0"
      input: "gradients/basic_lstm_cell/split_grad/concat:output:0"
      attr {
        key: "T"
        value {
          type: DT_FLOAT
        }
      }
      attr {
        key: "transpose_a"
        value {
          b: true
        }
      }
      attr {
        key: "transpose_b"
        value {
          b: false
        }
      }
    }
    node_def {
      name: "gradients/AddN_3"
      op: "AddN"
      input: "gradients/grad_ys_5:output:0"
      input: "gradients/basic_lstm_cell/BiasAdd_grad/BiasAddGrad:output:0"
      attr {
        key: "N"
        value {
          i: 2
        }
      }
      attr {
        key: "T"
        value {
          type: DT_FLOAT
        }
      }
      attr {
        key: "_class"
        value {
          list {
            s: "loc:@gradients/grad_ys_5"
          }
        }
      }
    }
    node_def {
      name: "gradients/basic_lstm_cell/concat_grad/Rank"
      op: "Const"
      attr {
        key: "dtype"
        value {
          type: DT_INT32
        }
      }
      attr {
        key: "value"
        value {
          tensor {
            dtype: DT_INT32
            tensor_shape {
            }
            int_val: 2
          }
        }
      }
    }
    node_def {
      name: "gradients/basic_lstm_cell/concat_grad/mod/Const"
      op: "Const"
      attr {
        key: "dtype"
        value {
          type: DT_INT32
        }
      }
      attr {
        key: "value"
        value {
          tensor {
            dtype: DT_INT32
            tensor_shape {
            }
            int_val: 1
          }
        }
      }
    }
    node_def {
      name: "gradients/basic_lstm_cell/concat_grad/mod"
      op: "FloorMod"
      input: "gradients/basic_lstm_cell/concat_grad/mod/Const:output:0"
      input: "gradients/basic_lstm_cell/concat_grad/Rank:output:0"
      attr {
        key: "T"
        value {
          type: DT_INT32
        }
      }
    }
    node_def {
      name: "gradients/basic_lstm_cell/concat_grad/Shape"
      op: "Const"
      attr {
        key: "dtype"
        value {
          type: DT_INT32
        }
      }
      attr {
        key: "value"
        value {
          tensor {
            dtype: DT_INT32
            tensor_shape {
              dim {
                size: 2
              }
            }
            tensor_content: "\001\000\000\000\350\003\000\000"
          }
        }
      }
    }
    node_def {
      name: "gradients/basic_lstm_cell/concat_grad/Shape_1"
      op: "Const"
      attr {
        key: "dtype"
        value {
          type: DT_INT32
        }
      }
      attr {
        key: "value"
        value {
          tensor {
            dtype: DT_INT32
            tensor_shape {
              dim {
                size: 2
              }
            }
            tensor_content: "\001\000\000\000\364\001\000\000"
          }
        }
      }
    }
    node_def {
      name: "gradients/basic_lstm_cell/concat_grad/ConcatOffset"
      op: "ConcatOffset"
      input: "gradients/basic_lstm_cell/concat_grad/mod:z:0"
      input: "gradients/basic_lstm_cell/concat_grad/Shape:output:0"
      input: "gradients/basic_lstm_cell/concat_grad/Shape_1:output:0"
      attr {
        key: "N"
        value {
          i: 2
        }
      }
    }
    node_def {
      name: "gradients/basic_lstm_cell/concat_grad/Slice"
      op: "Slice"
      input: "gradients/basic_lstm_cell/MatMul_grad/MatMul:product:0"
      input: "gradients/basic_lstm_cell/concat_grad/ConcatOffset:offset:0"
      input: "gradients/basic_lstm_cell/concat_grad/Shape:output:0"
      attr {
        key: "Index"
        value {
          type: DT_INT32
        }
      }
      attr {
        key: "T"
        value {
          type: DT_FLOAT
        }
      }
    }
    node_def {
      name: "gradients/basic_lstm_cell/concat_grad/Slice_1"
      op: "Slice"
      input: "gradients/basic_lstm_cell/MatMul_grad/MatMul:product:0"
      input: "gradients/basic_lstm_cell/concat_grad/ConcatOffset:offset:1"
      input: "gradients/basic_lstm_cell/concat_grad/Shape_1:output:0"
      attr {
        key: "Index"
        value {
          type: DT_INT32
        }
      }
      attr {
        key: "T"
        value {
          type: DT_FLOAT
        }
      }
    }
    node_def {
      name: "gradients/AddN_4"
      op: "AddN"
      input: "gradients/grad_ys_4:output:0"
      input: "gradients/basic_lstm_cell/MatMul_grad/MatMul_1:product:0"
      attr {
        key: "N"
        value {
          i: 2
        }
      }
      attr {
        key: "T"
        value {
          type: DT_FLOAT
        }
      }
      attr {
        key: "_class"
        value {
          list {
            s: "loc:@gradients/grad_ys_4"
          }
        }
      }
    }
    node_def {
      name: "gradients/TensorArrayV2Read/TensorListGetItem_grad/TensorListReserve/TensorListPopBack/element_shape"
      op: "Const"
      attr {
        key: "dtype"
        value {
          type: DT_INT32
        }
      }
      attr {
        key: "value"
        value {
          tensor {
            dtype: DT_INT32
            tensor_shape {
            }
            int_val: -1
          }
        }
      }
    }
    node_def {
      name: "gradients/TensorArrayV2Read/TensorListGetItem_grad/TensorListReserve/TensorListPopBack"
      op: "TensorListPopBack"
      input: "gradients_tensorarrayv2read_tensorlistgetitem_grad_tensorlistreserve_gradients_tensorarrayv2read_tensorlistgetitem_grad_tensorlistelementshape"
      input: "gradients/TensorArrayV2Read/TensorListGetItem_grad/TensorListReserve/TensorListPopBack/element_shape:output:0"
      attr {
        key: "element_dtype"
        value {
          type: DT_INT32
        }
      }
    }
    node_def {
      name: "gradients/TensorArrayV2Read/TensorListGetItem_grad/TensorListReserve/TensorListPopBack_1/element_shape"
      op: "Const"
      attr {
        key: "dtype"
        value {
          type: DT_INT32
        }
      }
      attr {
        key: "value"
        value {
          tensor {
            dtype: DT_INT32
            tensor_shape {
            }
            int_val: -1
          }
        }
      }
    }
    node_def {
      name: "gradients/TensorArrayV2Read/TensorListGetItem_grad/TensorListReserve/TensorListPopBack_1"
      op: "TensorListPopBack"
      input: "gradients_tensorarrayv2read_tensorlistgetitem_grad_tensorlistreserve_gradients_tensorarrayv2read_tensorlistgetitem_grad_tensorlistlength"
      input: "gradients/TensorArrayV2Read/TensorListGetItem_grad/TensorListReserve/TensorListPopBack_1/element_shape:output:0"
      attr {
        key: "element_dtype"
        value {
          type: DT_INT32
        }
      }
    }
    node_def {
      name: "gradients/TensorArrayV2Read/TensorListGetItem_grad/TensorListReserve"
      op: "TensorListReserve"
      input: "gradients/TensorArrayV2Read/TensorListGetItem_grad/TensorListReserve/TensorListPopBack:tensor:0"
      input: "gradients/TensorArrayV2Read/TensorListGetItem_grad/TensorListReserve/TensorListPopBack_1:tensor:0"
      attr {
        key: "element_dtype"
        value {
          type: DT_FLOAT
        }
      }
      attr {
        key: "shape_type"
        value {
          type: DT_INT32
        }
      }
      experimental_type {
        type_id: TFT_PRODUCT
        args {
          type_id: TFT_ARRAY
          args {
            type_id: TFT_TENSOR
            args {
              type_id: TFT_FLOAT
            }
          }
        }
      }
    }
    node_def {
      name: "gradients/TensorArrayV2Read/TensorListGetItem_grad/TensorListSetItem"
      op: "TensorListSetItem"
      input: "gradients/TensorArrayV2Read/TensorListGetItem_grad/TensorListReserve:handle:0"
      input: "gradients/TensorArrayV2Write/TensorListSetItem_grad/TensorListSetItem/TensorListPopBack:tensor:0"
      input: "gradients/basic_lstm_cell/concat_grad/Slice:output:0"
      attr {
        key: "element_dtype"
        value {
          type: DT_FLOAT
        }
      }
      experimental_type {
        type_id: TFT_PRODUCT
        args {
          type_id: TFT_ARRAY
          args {
            type_id: TFT_TENSOR
            args {
              type_id: TFT_FLOAT
            }
          }
        }
      }
    }
    node_def {
      name: "gradients/AddN_5"
      op: "AddN"
      input: "gradients/grad_ys_3:output:0"
      input: "gradients/TensorArrayV2Read/TensorListGetItem_grad/TensorListSetItem:output_handle:0"
      attr {
        key: "N"
        value {
          i: 2
        }
      }
      attr {
        key: "T"
        value {
          type: DT_VARIANT
        }
      }
      attr {
        key: "_class"
        value {
          list {
            s: "loc:@gradients/grad_ys_3"
          }
        }
      }
    }
    node_def {
      name: "add/y"
      op: "Const"
      attr {
        key: "dtype"
        value {
          type: DT_INT32
        }
      }
      attr {
        key: "value"
        value {
          tensor {
            dtype: DT_INT32
            tensor_shape {
            }
            int_val: 1
          }
        }
      }
    }
    node_def {
      name: "add"
      op: "AddV2"
      input: "placeholder"
      input: "add/y:output:0"
      attr {
        key: "T"
        value {
          type: DT_INT32
        }
      }
    }
    node_def {
      name: "Identity"
      op: "Identity"
      input: "add:z:0"
      attr {
        key: "T"
        value {
          type: DT_INT32
        }
      }
    }
    node_def {
      name: "Identity_1"
      op: "Identity"
      input: "placeholder_1"
      attr {
        key: "T"
        value {
          type: DT_INT32
        }
      }
    }
    node_def {
      name: "Identity_2"
      op: "Identity"
      input: "placeholder_2"
      attr {
        key: "T"
        value {
          type: DT_INT32
        }
      }
    }
    node_def {
      name: "Identity_3"
      op: "Identity"
      input: "gradients/TensorArrayV2Write/TensorListSetItem_grad/TensorListSetItem:output_handle:0"
      attr {
        key: "T"
        value {
          type: DT_VARIANT
        }
      }
      experimental_type {
        type_id: TFT_PRODUCT
        args {
          type_id: TFT_ARRAY
          args {
            type_id: TFT_TENSOR
            args {
              type_id: TFT_FLOAT
            }
          }
        }
      }
    }
    node_def {
      name: "Identity_4"
      op: "Identity"
      input: "gradients/basic_lstm_cell/Mul_grad/Mul:z:0"
      attr {
        key: "T"
        value {
          type: DT_FLOAT
        }
      }
    }
    node_def {
      name: "Identity_5"
      op: "Identity"
      input: "gradients/basic_lstm_cell/concat_grad/Slice_1:output:0"
      attr {
        key: "T"
        value {
          type: DT_FLOAT
        }
      }
    }
    node_def {
      name: "Identity_6"
      op: "Identity"
      input: "gradients/AddN_5:sum:0"
      attr {
        key: "T"
        value {
          type: DT_VARIANT
        }
      }
    }
    node_def {
      name: "Identity_7"
      op: "Identity"
      input: "gradients/AddN_4:sum:0"
      attr {
        key: "T"
        value {
          type: DT_FLOAT
        }
      }
    }
    node_def {
      name: "Identity_8"
      op: "Identity"
      input: "gradients/AddN_3:sum:0"
      attr {
        key: "T"
        value {
          type: DT_FLOAT
        }
      }
    }
    node_def {
      name: "Identity_9"
      op: "Identity"
      input: "gradients/AddN_2:sum:0"
      attr {
        key: "T"
        value {
          type: DT_FLOAT
        }
      }
    }
    ret {
      key: "gradients_basic_lstm_cell_matmul_grad_matmul_1_tensorlistpopback"
      value: "gradients/basic_lstm_cell/MatMul_grad/MatMul_1/TensorListPopBack:output_handle:0"
    }
    ret {
      key: "gradients_basic_lstm_cell_matmul_grad_matmul_basic_lstm_cell_matmul_lstm_caption_rnn_basic_lstm_cell_kernel_read_identity"
      value: "gradients_basic_lstm_cell_matmul_grad_matmul_basic_lstm_cell_matmul_lstm_caption_rnn_basic_lstm_cell_kernel_read_identity_0"
    }
    ret {
      key: "gradients_basic_lstm_cell_mul_1_grad_mul_1_tensorlistpopback"
      value: "gradients/basic_lstm_cell/Mul_1_grad/Mul_1/TensorListPopBack:output_handle:0"
    }
    ret {
      key: "gradients_basic_lstm_cell_mul_1_grad_mul_tensorlistpopback"
      value: "gradients/basic_lstm_cell/Mul_1_grad/Mul/TensorListPopBack:output_handle:0"
    }
    ret {
      key: "gradients_basic_lstm_cell_mul_2_grad_mul_1_tensorlistpopback"
      value: "gradients/basic_lstm_cell/Mul_2_grad/Mul_1/TensorListPopBack:output_handle:0"
    }
    ret {
      key: "gradients_basic_lstm_cell_mul_2_grad_mul_tensorlistpopback"
      value: "gradients/basic_lstm_cell/Mul_2_grad/Mul/TensorListPopBack:output_handle:0"
    }
    ret {
      key: "gradients_basic_lstm_cell_mul_grad_mul_1_tensorlistpopback"
      value: "gradients/basic_lstm_cell/Mul_grad/Mul_1/TensorListPopBack:output_handle:0"
    }
    ret {
      key: "gradients_basic_lstm_cell_mul_grad_mul_tensorlistpopback"
      value: "gradients/basic_lstm_cell/Mul_grad/Mul/TensorListPopBack:output_handle:0"
    }
    ret {
      key: "gradients_dropout_mul_grad_broadcastgradientargs_tensorlistpopback"
      value: "gradients/dropout/Mul_grad/BroadcastGradientArgs/TensorListPopBack:output_handle:0"
    }
    ret {
      key: "gradients_dropout_mul_grad_broadcastgradientargs_tensorlistpopback_1"
      value: "gradients/dropout/Mul_grad/BroadcastGradientArgs/TensorListPopBack_1:output_handle:0"
    }
    ret {
      key: "gradients_dropout_mul_grad_mul_1_tensorlistpopback"
      value: "gradients/dropout/Mul_grad/Mul_1/TensorListPopBack:output_handle:0"
    }
    ret {
      key: "gradients_dropout_mul_grad_mul_tensorlistpopback"
      value: "gradients/dropout/Mul_grad/Mul/TensorListPopBack:output_handle:0"
    }
    ret {
      key: "gradients_dropout_realdiv_grad_broadcastgradientargs_tensorlistpopback"
      value: "gradients/dropout/RealDiv_grad/BroadcastGradientArgs/TensorListPopBack:output_handle:0"
    }
    ret {
      key: "gradients_dropout_realdiv_grad_neg_tensorlistpopback"
      value: "gradients/dropout/RealDiv_grad/Neg/TensorListPopBack:output_handle:0"
    }
    ret {
      key: "gradients_dropout_realdiv_grad_realdiv_tensorlistpopback"
      value: "gradients/dropout/RealDiv_grad/RealDiv/TensorListPopBack:output_handle:0"
    }
    ret {
      key: "gradients_dropout_sub_grad_broadcastgradientargs_tensorlistpopback"
      value: "gradients/dropout/Sub_grad/BroadcastGradientArgs/TensorListPopBack:output_handle:0"
    }
    ret {
      key: "gradients_dropout_sub_grad_broadcastgradientargs_tensorlistpopback_1"
      value: "gradients/dropout/Sub_grad/BroadcastGradientArgs/TensorListPopBack_1:output_handle:0"
    }
    ret {
      key: "gradients_sub_grad_broadcastgradientargs_tensorlistpopback"
      value: "gradients/sub_grad/BroadcastGradientArgs/TensorListPopBack:output_handle:0"
    }
    ret {
      key: "gradients_sub_grad_broadcastgradientargs_tensorlistpopback_1"
      value: "gradients/sub_grad/BroadcastGradientArgs/TensorListPopBack_1:output_handle:0"
    }
    ret {
      key: "gradients_tensorarrayv2read_tensorlistgetitem_grad_tensorlistreserve_tensorlistpopback"
      value: "gradients/TensorArrayV2Read/TensorListGetItem_grad/TensorListReserve/TensorListPopBack:output_handle:0"
    }
    ret {
      key: "gradients_tensorarrayv2read_tensorlistgetitem_grad_tensorlistreserve_tensorlistpopback_1"
      value: "gradients/TensorArrayV2Read/TensorListGetItem_grad/TensorListReserve/TensorListPopBack_1:output_handle:0"
    }
    ret {
      key: "gradients_tensorarrayv2write_tensorlistsetitem_grad_tensorlistsetitem_tensorlistpopback"
      value: "gradients/TensorArrayV2Write/TensorListSetItem_grad/TensorListSetItem/TensorListPopBack:output_handle:0"
    }
    ret {
      key: "identity"
      value: "Identity:output:0"
    }
    ret {
      key: "identity_1"
      value: "Identity_1:output:0"
    }
    ret {
      key: "identity_2"
      value: "Identity_2:output:0"
    }
    ret {
      key: "identity_3"
      value: "Identity_3:output:0"
    }
    ret {
      key: "identity_4"
      value: "Identity_4:output:0"
    }
    ret {
      key: "identity_5"
      value: "Identity_5:output:0"
    }
    ret {
      key: "identity_6"
      value: "Identity_6:output:0"
    }
    ret {
      key: "identity_7"
      value: "Identity_7:output:0"
    }
    ret {
      key: "identity_8"
      value: "Identity_8:output:0"
    }
    ret {
      key: "identity_9"
      value: "Identity_9:output:0"
    }
    arg_attr {
      value {
        attr {
          key: "_output_shapes"
          value {
            list {
              shape {
              }
            }
          }
        }
      }
    }
    arg_attr {
      key: 1
      value {
        attr {
          key: "_output_shapes"
          value {
            list {
              shape {
              }
            }
          }
        }
      }
    }
    arg_attr {
      key: 2
      value {
        attr {
          key: "_output_shapes"
          value {
            list {
              shape {
              }
            }
          }
        }
      }
    }
    arg_attr {
      key: 3
      value {
        attr {
          key: "_output_shapes"
          value {
            list {
              shape {
              }
            }
          }
        }
      }
    }
    arg_attr {
      key: 4
      value {
        attr {
          key: "_output_shapes"
          value {
            list {
              shape {
                dim {
                  size: 1
                }
                dim {
                  size: 500
                }
              }
            }
          }
        }
      }
    }
    arg_attr {
      key: 5
      value {
        attr {
          key: "_output_shapes"
          value {
            list {
              shape {
                dim {
                  size: 1
                }
                dim {
                  size: 500
                }
              }
            }
          }
        }
      }
    }
    arg_attr {
      key: 6
      value {
        attr {
          key: "_output_shapes"
          value {
            list {
              shape {
              }
            }
          }
        }
      }
    }
    arg_attr {
      key: 7
      value {
        attr {
          key: "_output_shapes"
          value {
            list {
              shape {
                dim {
                  size: 1500
                }
                dim {
                  size: 2000
                }
              }
            }
          }
        }
      }
    }
    arg_attr {
      key: 8
      value {
        attr {
          key: "_output_shapes"
          value {
            list {
              shape {
                dim {
                  size: 2000
                }
              }
            }
          }
        }
      }
    }
    arg_attr {
      key: 9
      value {
        attr {
          key: "_output_shapes"
          value {
            list {
              shape {
                unknown_rank: true
              }
            }
          }
        }
      }
    }
    arg_attr {
      key: 10
      value {
        attr {
          key: "_output_shapes"
          value {
            list {
              shape {
              }
            }
          }
        }
      }
    }
    arg_attr {
      key: 11
      value {
        attr {
          key: "_output_shapes"
          value {
            list {
              shape {
              }
            }
          }
        }
      }
    }
    arg_attr {
      key: 12
      value {
        attr {
          key: "_output_shapes"
          value {
            list {
              shape {
              }
            }
          }
        }
      }
    }
    arg_attr {
      key: 13
      value {
        attr {
          key: "_output_shapes"
          value {
            list {
              shape {
              }
            }
          }
        }
      }
    }
    arg_attr {
      key: 14
      value {
        attr {
          key: "_output_shapes"
          value {
            list {
              shape {
              }
            }
          }
        }
      }
    }
    arg_attr {
      key: 15
      value {
        attr {
          key: "_output_shapes"
          value {
            list {
              shape {
              }
            }
          }
        }
      }
    }
    arg_attr {
      key: 16
      value {
        attr {
          key: "_output_shapes"
          value {
            list {
              shape {
              }
            }
          }
        }
      }
    }
    arg_attr {
      key: 17
      value {
        attr {
          key: "_output_shapes"
          value {
            list {
              shape {
              }
            }
          }
        }
      }
    }
    arg_attr {
      key: 18
      value {
        attr {
          key: "_output_shapes"
          value {
            list {
              shape {
              }
            }
          }
        }
      }
    }
    arg_attr {
      key: 19
      value {
        attr {
          key: "_output_shapes"
          value {
            list {
              shape {
              }
            }
          }
        }
      }
    }
    arg_attr {
      key: 20
      value {
        attr {
          key: "_output_shapes"
          value {
            list {
              shape {
              }
            }
          }
        }
      }
    }
    arg_attr {
      key: 21
      value {
        attr {
          key: "_output_shapes"
          value {
            list {
              shape {
              }
            }
          }
        }
      }
    }
    arg_attr {
      key: 22
      value {
        attr {
          key: "_output_shapes"
          value {
            list {
              shape {
              }
            }
          }
        }
      }
    }
    arg_attr {
      key: 23
      value {
        attr {
          key: "_output_shapes"
          value {
            list {
              shape {
              }
            }
          }
        }
      }
    }
    arg_attr {
      key: 24
      value {
        attr {
          key: "_output_shapes"
          value {
            list {
              shape {
              }
            }
          }
        }
      }
    }
    arg_attr {
      key: 25
      value {
        attr {
          key: "_output_shapes"
          value {
            list {
              shape {
              }
            }
          }
        }
      }
    }
    arg_attr {
      key: 26
      value {
        attr {
          key: "_output_shapes"
          value {
            list {
              shape {
              }
            }
          }
        }
      }
    }
    arg_attr {
      key: 27
      value {
        attr {
          key: "_output_shapes"
          value {
            list {
              shape {
              }
            }
          }
        }
      }
    }
    arg_attr {
      key: 28
      value {
        attr {
          key: "_output_shapes"
          value {
            list {
              shape {
                dim {
                  size: 1500
                }
                dim {
                  size: 2000
                }
              }
            }
          }
        }
      }
    }
    arg_attr {
      key: 29
      value {
        attr {
          key: "_output_shapes"
          value {
            list {
              shape {
              }
            }
          }
        }
      }
    }
    arg_attr {
      key: 30
      value {
        attr {
          key: "_output_shapes"
          value {
            list {
              shape {
              }
            }
          }
        }
      }
    }
    arg_attr {
      key: 31
      value {
        attr {
          key: "_output_shapes"
          value {
            list {
              shape {
              }
            }
          }
        }
      }
    }
  }
  function {
    signature {
      name: "LSTM_Video_1_rnn_while_cond_3647_rewritten_grad_4912"
      input_arg {
        name: "placeholder"
        type: DT_INT32
      }
      input_arg {
        name: "placeholder_1"
        type: DT_INT32
      }
      input_arg {
        name: "placeholder_2"
        type: DT_INT32
      }
      input_arg {
        name: "placeholder_3"
        type: DT_VARIANT
      }
      input_arg {
        name: "placeholder_4"
        type: DT_FLOAT
      }
      input_arg {
        name: "placeholder_5"
        type: DT_FLOAT
      }
      input_arg {
        name: "placeholder_6"
        type: DT_VARIANT
      }
      input_arg {
        name: "placeholder_7"
        type: DT_FLOAT
      }
      input_arg {
        name: "placeholder_8"
        type: DT_FLOAT
      }
      input_arg {
        name: "placeholder_9"
        type: DT_FLOAT
      }
      input_arg {
        name: "placeholder_10"
        type: DT_VARIANT
      }
      input_arg {
        name: "placeholder_11"
        type: DT_VARIANT
      }
      input_arg {
        name: "placeholder_12"
        type: DT_VARIANT
      }
      input_arg {
        name: "placeholder_13"
        type: DT_VARIANT
      }
      input_arg {
        name: "placeholder_14"
        type: DT_VARIANT
      }
      input_arg {
        name: "placeholder_15"
        type: DT_VARIANT
      }
      input_arg {
        name: "placeholder_16"
        type: DT_VARIANT
      }
      input_arg {
        name: "placeholder_17"
        type: DT_VARIANT
      }
      input_arg {
        name: "placeholder_18"
        type: DT_VARIANT
      }
      input_arg {
        name: "placeholder_19"
        type: DT_VARIANT
      }
      input_arg {
        name: "placeholder_20"
        type: DT_VARIANT
      }
      input_arg {
        name: "placeholder_21"
        type: DT_VARIANT
      }
      input_arg {
        name: "placeholder_22"
        type: DT_VARIANT
      }
      input_arg {
        name: "placeholder_23"
        type: DT_VARIANT
      }
      input_arg {
        name: "placeholder_24"
        type: DT_VARIANT
      }
      input_arg {
        name: "placeholder_25"
        type: DT_VARIANT
      }
      input_arg {
        name: "placeholder_26"
        type: DT_VARIANT
      }
      input_arg {
        name: "placeholder_27"
        type: DT_VARIANT
      }
      input_arg {
        name: "placeholder_28"
        type: DT_FLOAT
      }
      input_arg {
        name: "placeholder_29"
        type: DT_VARIANT
      }
      input_arg {
        name: "placeholder_30"
        type: DT_VARIANT
      }
      input_arg {
        name: "placeholder_31"
        type: DT_VARIANT
      }
      output_arg {
        name: "identity"
        type: DT_BOOL
      }
    }
    node_def {
      name: "Less"
      op: "Less"
      input: "placeholder"
      input: "placeholder_2"
      attr {
        key: "T"
        value {
          type: DT_INT32
        }
      }
    }
    node_def {
      name: "Identity"
      op: "Identity"
      input: "Less:z:0"
      attr {
        key: "T"
        value {
          type: DT_BOOL
        }
      }
    }
    ret {
      key: "identity"
      value: "Identity:output:0"
    }
    arg_attr {
      value {
        attr {
          key: "_output_shapes"
          value {
            list {
              shape {
              }
            }
          }
        }
      }
    }
    arg_attr {
      key: 1
      value {
        attr {
          key: "_output_shapes"
          value {
            list {
              shape {
              }
            }
          }
        }
      }
    }
    arg_attr {
      key: 2
      value {
        attr {
          key: "_output_shapes"
          value {
            list {
              shape {
              }
            }
          }
        }
      }
    }
    arg_attr {
      key: 3
      value {
        attr {
          key: "_output_shapes"
          value {
            list {
              shape {
              }
            }
          }
        }
      }
    }
    arg_attr {
      key: 4
      value {
        attr {
          key: "_output_shapes"
          value {
            list {
              shape {
                dim {
                  size: 1
                }
                dim {
                  size: 500
                }
              }
            }
          }
        }
      }
    }
    arg_attr {
      key: 5
      value {
        attr {
          key: "_output_shapes"
          value {
            list {
              shape {
                dim {
                  size: 1
                }
                dim {
                  size: 500
                }
              }
            }
          }
        }
      }
    }
    arg_attr {
      key: 6
      value {
        attr {
          key: "_output_shapes"
          value {
            list {
              shape {
              }
            }
          }
        }
      }
    }
    arg_attr {
      key: 7
      value {
        attr {
          key: "_output_shapes"
          value {
            list {
              shape {
                dim {
                  size: 1000
                }
                dim {
                  size: 2000
                }
              }
            }
          }
        }
      }
    }
    arg_attr {
      key: 8
      value {
        attr {
          key: "_output_shapes"
          value {
            list {
              shape {
                dim {
                  size: 2000
                }
              }
            }
          }
        }
      }
    }
    arg_attr {
      key: 9
      value {
        attr {
          key: "_output_shapes"
          value {
            list {
              shape {
                unknown_rank: true
              }
            }
          }
        }
      }
    }
    arg_attr {
      key: 10
      value {
        attr {
          key: "_output_shapes"
          value {
            list {
              shape {
              }
            }
          }
        }
      }
    }
    arg_attr {
      key: 11
      value {
        attr {
          key: "_output_shapes"
          value {
            list {
              shape {
              }
            }
          }
        }
      }
    }
    arg_attr {
      key: 12
      value {
        attr {
          key: "_output_shapes"
          value {
            list {
              shape {
              }
            }
          }
        }
      }
    }
    arg_attr {
      key: 13
      value {
        attr {
          key: "_output_shapes"
          value {
            list {
              shape {
              }
            }
          }
        }
      }
    }
    arg_attr {
      key: 14
      value {
        attr {
          key: "_output_shapes"
          value {
            list {
              shape {
              }
            }
          }
        }
      }
    }
    arg_attr {
      key: 15
      value {
        attr {
          key: "_output_shapes"
          value {
            list {
              shape {
              }
            }
          }
        }
      }
    }
    arg_attr {
      key: 16
      value {
        attr {
          key: "_output_shapes"
          value {
            list {
              shape {
              }
            }
          }
        }
      }
    }
    arg_attr {
      key: 17
      value {
        attr {
          key: "_output_shapes"
          value {
            list {
              shape {
              }
            }
          }
        }
      }
    }
    arg_attr {
      key: 18
      value {
        attr {
          key: "_output_shapes"
          value {
            list {
              shape {
              }
            }
          }
        }
      }
    }
    arg_attr {
      key: 19
      value {
        attr {
          key: "_output_shapes"
          value {
            list {
              shape {
              }
            }
          }
        }
      }
    }
    arg_attr {
      key: 20
      value {
        attr {
          key: "_output_shapes"
          value {
            list {
              shape {
              }
            }
          }
        }
      }
    }
    arg_attr {
      key: 21
      value {
        attr {
          key: "_output_shapes"
          value {
            list {
              shape {
              }
            }
          }
        }
      }
    }
    arg_attr {
      key: 22
      value {
        attr {
          key: "_output_shapes"
          value {
            list {
              shape {
              }
            }
          }
        }
      }
    }
    arg_attr {
      key: 23
      value {
        attr {
          key: "_output_shapes"
          value {
            list {
              shape {
              }
            }
          }
        }
      }
    }
    arg_attr {
      key: 24
      value {
        attr {
          key: "_output_shapes"
          value {
            list {
              shape {
              }
            }
          }
        }
      }
    }
    arg_attr {
      key: 25
      value {
        attr {
          key: "_output_shapes"
          value {
            list {
              shape {
              }
            }
          }
        }
      }
    }
    arg_attr {
      key: 26
      value {
        attr {
          key: "_output_shapes"
          value {
            list {
              shape {
              }
            }
          }
        }
      }
    }
    arg_attr {
      key: 27
      value {
        attr {
          key: "_output_shapes"
          value {
            list {
              shape {
              }
            }
          }
        }
      }
    }
    arg_attr {
      key: 28
      value {
        attr {
          key: "_output_shapes"
          value {
            list {
              shape {
                dim {
                  size: 1000
                }
                dim {
                  size: 2000
                }
              }
            }
          }
        }
      }
    }
    arg_attr {
      key: 29
      value {
        attr {
          key: "_output_shapes"
          value {
            list {
              shape {
              }
            }
          }
        }
      }
    }
    arg_attr {
      key: 30
      value {
        attr {
          key: "_output_shapes"
          value {
            list {
              shape {
              }
            }
          }
        }
      }
    }
    arg_attr {
      key: 31
      value {
        attr {
          key: "_output_shapes"
          value {
            list {
              shape {
              }
            }
          }
        }
      }
    }
  }
}
versions {
  producer: 987
  min_consumer: 12
}
